artifacts/gpt2_probe_layer_2:v0/layer_2.pt (torch, 787676 bytes, 1 tensors)

weight f4 [256, 768]
000000 57 9b 0f bd b2 c8 cc 39 fe 50 8d bd e1 7f e6 3d
       -0.035060253 0.00039059442 -0.06900214 0.1125486
000010 4b af 03 3c da df 00 bc 40 4e 05 be da db b7 ba
       0.008037399 -0.00786587 -0.13018131 -0.0014027313
000020 c7 98 cb bc 18 7c 80 bc ca 2e c9 3c 12 e2 81 bc
       -0.024853123 -0.015684173 0.024558444 -0.015854869
000030 11 07 99 3c ca aa 15 bd 41 7d ad bd 4f ae 69 bd
       0.018680127 -0.03653983 -0.08471156 -0.057051
000040 94 89 24 3d 40 a8 e7 3c 07 8f 02 3e 48 86 a1 3d
       0.040170267 0.02827847 0.12749873 0.0788694
000050 72 3d 35 bd d0 dc 4b 3d ea e0 46 3d 44 df 00 be
       -0.044248052 0.04977113 0.04855434 -0.12585169
000060 fb 64 13 3d 44 0a 4e 3c ff 61 95 bd 2c b8 33 be
       0.035984974 0.01257569 -0.07294082 -0.17550725
000070 e9 fb d0 3c 71 4a c6 bc 33 c6 ab bd 89 4c e7 3c
       0.025510745 -0.024205418 -0.08387413 0.028234737
000080 df 80 07 3d d9 78 ce 3c 25 f4 53 3d b7 16 25 3d
       0.033081885 0.025204109 0.051746506 0.040304866
000090 a3 0b fa bc dd 3a e2 bc 0b e0 a3 bb 18 6d 4d bd
       -0.030523127 -0.027615959 -0.0050010732 -0.050152868
0000a0 c8 0c 42 bd 00 8c 23 3d 55 c6 b7 bc fc 2a 0f 3d
       -0.04737547 0.039928436 -0.02243344 0.034953102
0000b0 f0 37 a6 3c 42 2f 2b bd cf f7 16 3d db 0c dc bd
       0.020290345 -0.041793115 0.036857422 -0.107446395
0000c0 ef 12 61 bb 86 de ce 3c 90 ac 9b 3d 93 38 26 be
       -0.003434356 0.025252592 0.07601273 -0.16232519
0000d0 bf 9d af bd a4 6f 9d bd 7a ae 02 be 35 20 90 bd
       -0.085750096 -0.076873094 -0.1276187 -0.07037393
0000e0 7b 73 07 bd 84 66 cf 3d ac e7 1d bb 5c 4c e1 3b
       -0.033069115 0.10126975 -0.0024094386 0.006875558
0000f0 c5 27 ad bd d4 82 90 bc 0a 9e aa bb 8d a1 88 3c
       -0.08454851 -0.017640509 -0.005206828 0.016678596
000100 db 04 f0 bc 3e 4d 0c bc 32 f0 05 bd e4 49 e9 bc
       -0.02929919 -0.008563338 -0.03269977 -0.028477617
000110 f3 a5 8b bd 2d 49 39 3d db 37 dd 3c ce 7a 99 bc
       -0.06818762 0.0452358 0.027004173 -0.018735316
000120 63 22 7c bc bb 66 af bc d1 4c 8d 3d 97 04 8a bd
       -0.015389058 -0.02141129 0.06899417 -0.06739157
000130 95 46 26 3d 99 c3 8f bd 00 97 96 3d 92 18 25 3e
       0.040594656 -0.07019729 0.0735302 0.16122654
000140 a5 b7 30 3d f4 89 91 bd a0 37 27 3e c1 ac c4 bc
       0.043143887 -0.071063906 0.16329813 -0.024008157
000150 4b 26 38 bc a6 e7 25 3d 07 a5 b0 3d c3 af b7 bc
       -0.0112395985 0.04050412 0.086252265 -0.022422677
000160 f8 ac b4 3d 1b c7 13 3c 1a b3 7e bc e9 71 dd bd
       0.08822054 0.009019638 -0.015545631 -0.10812742
000170 ea c9 bc bd f2 c1 c4 bd e6 d4 56 3c 37 39 c7 bc
       -0.092181996 -0.09607305 0.013112282 -0.024319274
000180 d5 18 8f 3d ba 67 b9 bb ee 3a ab 3d 59 9d 9f 3c
       0.06987158 -0.005658117 0.08360849 0.019484209
000190 da d3 8c 3d d6 7d f5 3c 6f bc be 3c 79 ad 37 3d
       0.06876345 0.02996723 0.023283212 0.04484317
0001a0 1f ee f9 bd 18 1d 04 3b 12 dd 11 3d 1e 42 e7 3d
       -0.12203621 0.0020158943 0.03561122 0.11291908
0001b0 44 78 f7 3d 64 c2 13 bd b8 ad 42 3d aa 01 b8 bc
       0.12083486 -0.036074057 0.047528952 -0.022461731
0001c0 6b f6 4e bc e2 33 b5 3c fe 21 1f 3d 64 f8 1f 3c
       -0.012631993 0.022119466 0.038850777 0.009763811
0001d0 4d 74 1d bd cd 10 06 3e e3 14 23 3d 67 ef 23 3d
       -0.03844099 0.13092346 0.03981484 0.040023234
0001e0 a4 af ef bc 68 c2 82 3c e1 5e 9b 3d 31 00 35 3d
       -0.029258557 0.01596184 0.07586456 0.044189636
0001f0 c0 cc db 3d bf 6f 3f bd 5e ae 2c 3d ab ce 9d 3c
       0.10732412 -0.04673743 0.042158477 0.019263586
000200 db 2e 12 bd 32 39 62 3d fc 65 a5 bc 69 9e aa 3c
       -0.035689216 0.055230327 -0.020190232 0.020827489
000210 4e 12 42 3a 9f 93 41 bc 88 16 79 3b 43 7c ae bc
       0.00074032403 -0.011814981 0.0038007814 -0.021299487
000220 db dc 3e bd 8f e9 13 bc bc b8 88 bc 17 26 4d bc
       -0.046597343 -0.009027853 -0.01668965 -0.012521288
000230 e2 dc db 3d 4f eb dd bc 91 c4 fc bd 69 f1 92 3d
       0.107354894 -0.027089743 -0.123421796 0.071749516
000240 95 9b 90 3c bd c2 76 bd e8 54 c3 bd 57 ef cd 3c
       0.017652312 -0.06024431 -0.09537679 0.02513854
000250 43 0c 0c 3e d9 62 ba bd 3f c9 20 3c 3a cc 09 3c
       0.13676552 -0.09100885 0.009813606 0.008410508
000260 a4 6a f3 3c 87 bb 20 bd 5b ba d7 bd cc 6a 9e 3d
       0.029713936 -0.03924134 -0.10533591 0.07735214
000270 a5 ee a8 3d 88 6a b3 3d 0a fc a0 3c 74 9c 3d 3d
       0.08248643 0.087605536 0.019651432 0.046291783
000280 2f f9 49 3d b1 61 bd bd 9b 2c 82 3d fb 84 9d 3c
       0.049309906 -0.09247149 0.06356164 0.01922845
000290 d2 7b d6 bc d9 68 25 3a 10 08 99 bc 29 b2 9e 3b
       -0.026182089 0.0006309874 -0.018680602 0.0048430157
0002a0 38 41 d6 3d 0b 9f 4d 3d 6b 09 54 bd 3c 97 ae 3d
       0.10461658 0.050200503 -0.051766794 0.085249394
0002b0 49 e2 06 bd e3 bd 21 3d 45 d9 1b bd cd 41 f0 3d
       -0.032930646 0.03948773 -0.038049 0.117313005
0002c0 2e fb fd 3b 3a 07 f5 3d 15 7f 86 3d 8d d9 dc 3d
       0.00775089 0.11964269 0.06567208 0.10783682
0002d0 34 e3 3b be e7 08 26 3d 65 44 bc 3d c3 e6 44 3c
       -0.1834839 0.040535834 0.09192733 0.0120179085
0002e0 52 7f ac bd 42 40 a9 bc 1e fc de bd a5 75 71 bd
       -0.08422722 -0.020660523 -0.10887931 -0.058950085
0002f0 7e 5b 4a 3c 1f ff 16 3d d5 b1 9c bc af 9d 57 bd
       0.012350915 0.036864396 -0.019127766 -0.052640613
000300 16 89 a5 bc ea 54 9b 3c 56 b7 40 bd e5 e5 bb bd
       -0.02020697 0.018961389 -0.047049843 -0.09174708
000310 61 1c 72 bd ed 53 67 3d 5d 76 bb bd 12 a6 d2 ba
       -0.059109095 0.056476522 -0.091534354 -0.0016071221
000320 b9 03 b3 bd ef a1 d3 3b 13 16 99 bd 4d 28 b0 3c
       -0.087409444 0.006458513 -0.074749134 0.021503592
000330 83 9e 8b 3c f2 5b 2e bd 51 47 d0 3c ae 8c 0c bd
       0.017043358 -0.042568155 0.025424631 -0.03431385
000340 49 6b 43 bd 6a 0d 9d bd 1c 89 08 3e 79 8d 03 bd
       -0.047709737 -0.07668574 0.13333553 -0.03211734
000350 22 5a 83 3d 0b c6 af bc b6 58 a9 bc 10 1f f6 3c
       0.06413676 -0.021456739 -0.020672183 0.030044109
000360 e1 a7 6a bd 37 72 db bc 61 d2 6d bd b8 ca 9d bd
       -0.057289008 -0.02678786 -0.05806196 -0.07704681
000370 af 53 15 3d f7 b1 9a bb 2f f6 f5 3d 25 36 3d bd
       0.03645676 -0.004720922 0.120098464 -0.046194214
000380 ab 61 d0 3b b4 a8 0b 3d 96 5c f8 3d 79 cf aa bc
       0.006359299 0.034096435 0.12127034 -0.020850884
000390 a5 5f 07 be f7 24 d7 3d b7 26 9d bd 4f 79 83 3d
       -0.13220079 0.10505097 -0.076734 0.06419622
0003a0 fe 36 ef bb ee 0a 66 3e 41 0d a2 3d ea 5f 31 3c
       -0.0073002568 0.22465107 0.07912684 0.01082609
0003b0 d8 0b fc 3c 2a 3e 52 bd ba f0 c1 3d f3 94 68 3c
       0.030767366 -0.051328816 0.09469743 0.0141956685
0003c0 3d 84 9b bd 29 4a 8f 3d 78 98 8e 3d 91 ad 45 3c
       -0.07593582 0.06996567 0.06962675 0.012065307
0003d0 ef cf 93 bc 7e 0d 77 bd 7e 96 4b bd 09 10 b9 3c
       -0.018043486 -0.0603156 -0.049704067 0.022590654
0003e0 a3 71 93 ba a6 85 21 3d 29 ea 8a bd bc 37 14 3e
       -0.0011249076 0.039434098 -0.06782944 0.14474386
0003f0 be e6 06 3e dc 34 38 3d e4 64 5e bc 66 47 96 bd
       0.13173959 0.044972286 -0.013573859 -0.07337837
