artifacts/gpt2_probe_layer_8:v0/layer_8.pt (torch, 787676 bytes, 1 tensors)

weight f4 [256, 768]
00000000: 5f63 bbbd a334 e2bc 1263 b6bc 49e5 efbc
00000010: 6faa 60bb 0f81 303c a0a2 c43c 3146 0ebd
00000020: 9318 2b3d 99b6 17ba 8809 8e3c 4a10 1dbd
00000030: 1f6a 193c 66a4 133d 8a24 573d bcb6 ea3c
00000040: f888 0cbd aedd b13c 8ff5 63bc c2b2 e6bc
00000050: 3187 02bd 1b1f 8b3c 4be3 debc 8007 113c
00000060: 6102 843c 519b 51bc c05b 313d 340a 96bb
00000070: 7eba 97bc 0c3d acbc 0e92 1fbc c05c ecbc
00000080: bbe8 373c 2d06 3c3c c5be 623d 70b8 a7bc
00000090: a375 3a3d 0c04 723c e97e 75bc f183 6c3d
000000a0: 7380 bdbb f0ce a73c 64b0 0fbd 8bce 3ebd
000000b0: b007 643c a815 073d 6778 8e3d d234 43bd
000000c0: 0207 1b3d 8b7d 3bbd da8b ac3d 5fb2 213a
000000d0: 51f9 9abc 8595 063d 1a63 90bc bd5f f1bb
000000e0: 8a77 273c 2b58 49bd 0000 953d d0ca a83d
000000f0: 30c4 72bc 7503 4bbd a3c6 d13c 5bb3 213d
00000100: 59f6 df3c a410 5fbd ac17 4bbd 25a3 cb3b
00000110: 6879 3ebd b8d2 84ba ea6c a6bc 932a 243d
00000120: e573 33bc ee83 6ebc 10e1 103d 6770 a73d
00000130: 0249 59bd 3436 113c 74f1 7b3d 485b 553b
00000140: 54bb f03b 33d8 f13c dfce 653d 9aef 8fb9
00000150: 8a10 263d 6cba 09bd 1794 23b9 8517 1c3e
00000160: 6039 873b aaa6 6a3b 1aee 163d 51dc 063c
00000170: d156 38bc 30c6 2cbd cf9a c9ba f732 2ebc
00000180: 4ffc 79bc bfaa 973c f522 2ebd a7da dcbb
00000190: eabb d4bc 7652 ba3c b041 e53c ce9a cd3c
000001a0: 70ec e1bc 3492 57bd 3aca 7a3c 5b84 16bd
000001b0: 33eb af3d 3b47 83bc 8389 423c bac3 1b3c
000001c0: 14ff 473c 7c81 d5bc a604 773c 6ccc 8c3d
000001d0: 3767 963a 1034 f73c 9ca1 673c 60bc 263c
000001e0: 380b 973b a5c3 85bd 2fbf a7bd eb8f 99bc
000001f0: e6ec 7e3c 91d7 85bc f7bf b73c 03a7 dcbb
00000200: ffe3 f4bc a6c4 963d 1038 e83b 9843 5c3d
00000210: 9adf 22bc 84ff babc 4e94 013d b0c4 bd3c
00000220: 8218 c13c 5ba2 f1bb e8e8 3e3d e8b2 2fbb
00000230: 62d0 e8bc 48e3 eb3b d5e3 843d e93f d23c
00000240: c8c6 38bc 9621 c83c 65a1 173d 3bb2 623c
00000250: 7185 503d 77a9 9b3c a5b3 19bd f303 c5bc
00000260: 6d53 bbbc f13d 3c3a 24af 963c e89c 7cbd
00000270: 873e 63ba 5cf2 923c 36db 8c3c ae74 673d
00000280: 5ce0 2e3c 5b9b 34bd b849 1bbc 5377 183d
00000290: 4027 d23c ebfd ce3a 314f 87bc 395d 123d
000002a0: e449 8ebd d281 b43c 3758 edbc ecf6 973c
000002b0: d0af 3ebd aac4 0339 5b03 e63d bb31 183d
000002c0: dca9 bcbd f3ab af3b 282d 0e3d 75d1 553d
000002d0: 5526 643c 150a aabc ad4c e9bc 0cab 3f3c
000002e0: bb1b b8bc bf8d 5b3d ee18 ad3b 76b5 853c
000002f0: 42ca adbc d527 f4bc a182 5a3c efa5 35bc
00000300: 4b2d 013d 4511 5d3d b5f1 003d 3132 993d
00000310: 3996 363d b9d1 63bc 8d26 533d 55fe 52bd
00000320: 2972 61bd 9043 713b b607 5cbd acfc da3c
00000330: 001f 80bd 2335 c7bd 57d7 18bd 360f ba3c
00000340: c35c 823d 22ef b3bb 51b4 d2bc cea7 6c3d
00000350: 183b 553d 479a 51bd d507 27bc c2de 323c
00000360: feb6 893d d576 2bbd 434c 683c 4d85 48bd
00000370: b8c5 b8bd 5c84 863b e2f1 793c 3b98 4bbc
00000380: bd7c 18bb 3411 3c3c 95d3 823d d75e 8a3d
00000390: f733 ee3c c678 e63d 87cc 393c a328 393c
000003a0: eac5 933c 427c b83c c5c8 3c3d cbf2 56bd
000003b0: 5a03 63bb f789 a43d aafc cb3c a27a d13c
000003c0: 593b 2dbc e483 533d a1c4 d23c 2dec 283c
000003d0: d031 8ebd 5911 6fbd 6a6e 503c d4fc e03b
000003e0: 822e c53c 6e20 69bd a545 b53c 37ef d1bc
000003f0: 98b9 a1bc 4fb8 1e3c bb7c b7bc 839f f4bc
-0.09149813 -0.02761299 -0.022264037 -0.029284136 -0.0034281274 0.0107729575 0.024003327 -0.03473491
0.041771483 -0.0005787402 0.01733853 -0.038345613 0.00936368 0.036045454 0.05252508 0.028651588
-0.03431031 0.02171215 -0.013913526 -0.02816141 -0.03186721 0.016982606 -0.027207991 0.008851886
0.016114416 -0.012793378 0.04330039 -0.004578853 -0.018521544 -0.021025203 -0.009739412 -0.02885282
0.011224921 0.011476082 0.055357713 -0.020473689 0.045522343 0.014771473 -0.014983871 0.057743017
-0.0057831346 0.020484418 -0.03508033 -0.046583693 0.0139178485 0.032979637 0.06956559 -0.047657795
0.03784848 -0.045774024 0.08425112 0.0006168242 -0.018917711 0.032857437 -0.01762538 -0.007366149
0.010221371 -0.04915635 0.072753906 0.082418084 -0.014817283 -0.049563844 0.025607413 0.039477687
0.027339147 -0.05445923 -0.049583122 0.0062145167 -0.0465025 -0.00101336 -0.020315606 0.040079664
-0.010952924 -0.014557822 0.035370886 0.08175736 -0.05304814 0.008863021 0.061509565 0.0032555629
0.00734655 0.029522037 0.05610549 -0.00027453603 0.040543117 -0.03362505 -0.00015600059 0.15243347
0.0041267127 0.0035804906 0.036848165 0.008231238 -0.011251167 -0.042181194 -0.001538122 -0.010632268
-0.015257909 0.018514035 -0.042513806 -0.0067399326 -0.02596851 0.022744399 0.027985424 0.02509823
-0.027578562 -0.052629665 0.015307004 -0.036747318 0.085897826 -0.016025176 0.011873606 0.009507114
0.012206811 -0.02606272 0.015076792 0.06874928 0.0011474852 0.030176193 0.014137652 0.010176748
0.0046094917 -0.06531457 -0.08190762 -0.018745383 0.015559411 -0.016338142 0.022430403 -0.0067337765
-0.029893873 0.073617265 0.0070867613 0.0537754 -0.009941006 -0.022826917 0.031635575 0.023165077
0.023571257 -0.0073740906 0.046608835 -0.0026809517 -0.028419677 0.007198725 0.06488768 0.02566524
-0.011277862 0.024430078 0.037019152 0.013836439 0.05090851 0.019001706 -0.037524838 -0.024049735
-0.022866929 0.0007180861 0.01839406 -0.061673075 -0.000866868 0.017937832 0.017194372 0.05650776
0.010673609 -0.04409347 -0.009478025 0.03722317 0.025653481 0.0015792226 -0.016517254 0.035733435
-0.06947687 0.02203456 -0.028972728 0.018550359 -0.046554387 0.00012566397 0.11231109 0.0371568
-0.092120856 0.005361074 0.034711033 0.052201707 0.013925155 -0.02075676 -0.028478945 0.011698496
-0.02247416 0.053601976 0.005282513 0.016321879 -0.021214608 -0.02980415 0.013336808 -0.011086925
0.031537335 0.053971548 0.03148051 0.074802764 0.044576857 -0.013904982 0.051550437 -0.05151208
-0.055040512 0.0036813952 -0.05371829 0.026731811 -0.06255913 -0.09726932 -0.03731474 0.022712331
0.06365349 -0.0054911533 -0.025720747 0.05777722 0.05205831 -0.05117252 -0.010194738 0.010917367
0.06724356 -0.041861374 0.014178338 -0.04895525 -0.09022087 0.004105134 0.015255423 -0.012426431
-0.002326771 0.011478711 0.06388012 0.067563705 0.029077513 0.112535045 0.011340267 0.011301192
0.018038709 0.022520188 0.046089906 -0.05247764 -0.003463945 0.08034127 0.024900753 0.025571171
-0.010573232 0.051639453 0.025728526 0.010310215 -0.06943095 -0.058366153 0.012721637 0.006866077
0.024070028 -0.056915693 0.022127936 -0.025626762 -0.019741818 0.009687497 -0.022398343 -0.029861217
