pos_cls/gpt2-large/layer_11.pt (torch, 241889 bytes, 1 tensors)

weight f4 [47, 1280]
00000000: 7758 a9bc 0313 30bd f639 68ba 2ed0 8ebc
00000010: 2f47 083d d7a5 4abc 3592 a03c a8fd 0f3c
00000020: 1f56 093d a1d6 e53c 18ab 953c 298a c0bc
00000030: ae51 cbba 75dd bb3c 015e 13bd 1062 c0bc
00000040: 2c0f 9e3c 5117 d1bb 2c65 523b e673 d5bc
00000050: 61e6 dbbc e3e6 183c 99d9 773c 723b adbc
00000060: 2fee cb3b 7e3e 9fbc 8d9c e43a 88f4 d4bc
00000070: 4a07 9e3c d8ba 1bbd 55d3 d03c 6940 14bc
00000080: 4823 b0ba c7c8 903b 8d0d ea3c 1b15 7ebc
00000090: 15a7 fcbc 0868 33bd 6546 a4bb 6e76 db3c
000000a0: 941f cfbc da23 ba3b 164c b63b 3e66 0cbd
000000b0: 6c1d 8cbc 622f 36bd b293 803c bea4 ac3c
000000c0: fe15 35bd 9b8f ae3c 3627 dc3a f337 2bbc
000000d0: 6caa 9abb 6f91 95bc 2e91 363d bfb1 6dbb
000000e0: 09a7 603c 790a 3e3d 5a4b e3bb a334 013d
000000f0: 7d0b 0ebc fdaa 57b9 597b babc adf7 b23b
00000100: 4b9f 473c a21f 19bd f6d5 ddbb e05c 123c
00000110: 0cb5 123b e46d 13bd 6ea2 b93c 4fd6 41bc
00000120: 0dbc 2c3d 298f 3eba bacb 5f3c 15b1 84bc
00000130: 6fcb 3ebc 304f e53b 32b0 62bc fe70 403d
00000140: 2bb9 b4bb 6295 8bbc 7447 513b c530 fcbc
00000150: f24b e93c cf96 cbbc 953d 13bd e198 00bc
00000160: 1e49 2abd 3915 29bd e26e 1bbb 2aa1 5d3c
00000170: fec2 0dbd a8b0 bf3b 59ff 3c3c c298 0ebd
00000180: 6e96 5ebc 3d3e 46bd 25b3 fbbc 46a0 1bbd
00000190: 20b1 f1bb aefb 123d b505 f33c 39b5 81bb
000001a0: ea8c 3d3d 8e95 b93b 5bc1 93bc 70f4 40bd
000001b0: c233 02bc 9096 c23b b32c fe3c 6c2c 00bc
000001c0: e218 fc3c 43c0 7dba f20c a5bc 1942 04bd
000001d0: 3218 17bd 8270 32bc dcce 67bc e300 9b3c
000001e0: af26 243d e7a2 18b9 04f4 df3c b122 923c
000001f0: 7209 b3bc e34e 92bc e33e e8bc 0b9d 8039
00000200: 9ae4 47bc c1f7 f3bc a9a3 eebc d835 9d3c
00000210: d014 f5bc b5be b2bc 6f3b 09bb b7d8 c43b
00000220: 4926 a93c a906 08bb 5391 fe3c c59b 38bb
00000230: 5e24 db3c 7937 cbbc cb81 23bb 29bf eb3c
00000240: 0a7b 3cbd 397c d339 4dd8 bfbc 7a16 7d3c
00000250: 371c 3b3c ef0a 573b caa0 cf3a 9500 27bd
00000260: 61f6 af3b 9c49 613b 5af9 65bb 40d1 903c
00000270: 2369 c33c 4b21 b03b aa9d 043d c30f 233d
00000280: 99e7 cfba f601 013d 8a48 a33c a8f6 5e3b
00000290: 9584 7cbb b300 9c3b 2292 a5bc f6ee 3c3b
000002a0: 0f27 03bd 8cba 3bbc 6337 03bc 5868 92bc
000002b0: 9531 eeb9 3987 9e3c bc9e de3b 8f0a 0dbc
000002c0: 3851 1a3d 0e91 afbb ea15 3c3d c96a e73c
000002d0: 2b00 d93c 74ae dabb 8f16 293c 0783 45bd
000002e0: a431 063c 404c 393b 3dfb 303c 0716 0f3b
000002f0: 739d 35bc 8f03 31bc 38cb 17bd 68ac 00bc
00000300: d841 29bd a97d 11bd caef 473b e027 443c
00000310: 6d34 02bc 2df7 c63c e4bb 663b 8c8d df3c
00000320: a298 503a 783c 003c af43 f6bb 1b53 9cbc
00000330: d6cf 17bc 2c10 393d 251e 913c 1fac 0bbd
00000340: 81f4 283a 04b4 0e3d 6200 89bc e160 c73c
00000350: 2521 e6bc 0915 ac3c d0b4 b73c 17e7 cebc
00000360: 9fa7 7539 1496 84bc c94e 3cbd f42b 4a3d
00000370: beac 6b3c 4f12 9a3b dcd2 5dbb f659 febc
00000380: 272d b0bc b68d 60bc d0a0 34bd dfc3 683c
00000390: 0d73 ee3c 8204 303d 7a1e 82ba 1c02 e33a
000003a0: 4293 683c 7b66 4abb 6a46 83bc bc0a e93b
000003b0: 402e a43c f39a 23bb fb1d c0bb 697e ccbb
000003c0: 2656 943c 61c4 0d3c bb9a 363d 155a fa3c
000003d0: 1092 26bc 8ffa 67bc 4d41 66bc c96e f7bc
000003e0: 2591 45bc 2d82 f2bc 06b0 c6bc b741 db3b
000003f0: b1d4 3b3d 89af 0dbc a791 023d 8f2e dd3b
-0.020672066 -0.04298688 -0.00088587345 -0.017433252 0.03327101 -0.012368641 0.019600967 0.008788504
0.033529397 0.028056445 0.01827006 -0.02350338 -0.0015512013 0.022932747 -0.03597832 -0.02348426
0.019294344 -0.0063809534 0.003210376 -0.026056241 -0.026843252 0.009332391 0.015127563 -0.02114651
0.006223462 -0.019438978 0.0017441675 -0.025995508 0.019290585 -0.038019985 0.025491396 -0.00904856
-0.0013438249 0.004418466 0.028570915 -0.015507962 -0.03084139 -0.043800384 -0.0050132745 0.02678987
-0.025283612 0.0056805434 0.0055632694 -0.034277193 -0.017103873 -0.04447878 0.015695427 0.021074649
-0.044210427 0.02130871 0.0016796354 -0.010450351 -0.004720023 -0.018257825 0.044572048 -0.0036269275
0.013711699 0.046396706 -0.006936473 0.03154434 -0.008669731 -0.00020567696 -0.022763895 0.005461654
0.0121839745 -0.037383683 -0.006769891 0.008933276 0.0022385744 -0.03599347 0.02266046 -0.01183088
0.042171527 -0.00072692573 0.013659412 -0.01619772 -0.011645182 0.0069979653 -0.013835954 0.046982758
-0.005515238 -0.017039005 0.0031933459 -0.030784974 0.028478596 -0.024852185 -0.0359474 -0.007848949
-0.041573636 -0.041280005 -0.0023717214 0.013527194 -0.034609787 0.0058499165 0.011535489 -0.03481365
-0.01358567 -0.0483992 -0.030725071 -0.037994646 -0.0073758513 0.03588455 0.029665807 -0.003958371
0.046276964 0.0056635803 -0.018036535 -0.047108114 -0.00794691 0.0059383586 0.031027174 -0.007823091
0.030773584 -0.00096798333 -0.020147774 -0.032289598 -0.03688831 -0.010891082 -0.01414844 0.018921321
0.040075954 -0.00014556535 0.027338035 0.017838808 -0.02185509 -0.017859882 -0.0283503 0.0002453107
-0.012200499 -0.029781224 -0.029130774 0.019190714 -0.02991715 -0.021819452 -0.0020939966 0.0060072797
0.020648139 -0.0020755923 0.031075155 -0.0028169018 0.02675074 -0.024806725 -0.0024949189 0.028777676
-0.046015777 0.0004033761 -0.02341857 0.015447253 0.011420301 0.0032812913 0.0015840766 -0.04077204
0.005369947 0.003437615 -0.0035091252 0.017677903 0.023853844 0.0053750626 0.032376923 0.039809953
-0.0015861868 0.03149601 0.01993205 0.003402153 -0.0038531173 0.0047608255 -0.020211283 0.0028828955
-0.03201967 -0.01145805 -0.008008811 -0.01787202 -0.0004543184 0.019351589 0.006793825 -0.008608474
0.037675112 -0.005357868 0.045919336 0.028249161 0.026489338 -0.0066736285 0.01032032 -0.04822066
0.008190546 0.0028274208 0.010802087 0.0021833198 -0.011084902 -0.010804071 -0.03705904 -0.007853605
-0.04132256 -0.03552023 0.0030507916 0.011972398 -0.00794707 0.024287784 0.0035207206 0.027289174
0.00079573144 0.007826917 -0.0075153927 -0.019082597 -0.009265861 0.04518144 0.01771457 -0.034099694
0.00064451253 0.034839645 -0.016723815 0.024338188 -0.028091976 0.021006124 0.022425085 -0.025256677
0.00023427464 -0.016184844 -0.045973573 0.049358323 0.014384447 0.0047018896 -0.0033847606 -0.031048756
-0.021505905 -0.0137056615 -0.044098675 0.014206856 0.029107595 0.04297305 -0.0009927296 0.0017319354
0.014195265 -0.0030883837 -0.016024787 0.0071118753 0.020041585 -0.0024964183 -0.005862949 -0.006240655
0.018107485 0.008652777 0.044581156 0.030560533 -0.01016666 -0.014158859 -0.014053655 -0.030204194
-0.012058531 -0.029603088 -0.024253856 0.0066911834 0.045857135 -0.008647808 0.031877186 0.006749935
