pos_cls/gpt2-large/layer_35.pt (torch, 241889 bytes, 1 tensors)

weight f4 [47, 1280]
000000 0e 55 1a bd 70 a7 24 bd 70 1d 51 3d b5 6c 99 bd
       -0.03767877 -0.040198743 0.051053464 -0.07491437
000010 4d 12 1d bc e2 b7 61 bd 7d 4e 6c bd 30 a2 27 3d
       -0.009586883 -0.055107005 -0.05769204 0.04092616
000020 cd f8 52 3c 27 c0 8a 3d 53 91 84 bc b3 4e 23 3b
       0.012876702 0.067749314 -0.016182577 0.0024918735
000030 a2 b3 86 3d 0d 4e 96 3d 77 57 b7 bc ed 94 2d 3d
       0.06577231 0.07339106 -0.022380574 0.042378355
000040 cf 8a cd bc df e1 92 bb aa ed 41 3d 68 6e 74 bd
       -0.025090603 -0.0044824923 0.047345795 -0.059675604
000050 18 57 24 bd 11 70 80 bc eb ff 51 3d ec 2b 0a 3c
       -0.04012212 -0.015678437 0.051269453 0.008433323
000060 e5 2a bf bc 2a 70 10 bd 21 19 af bc 54 53 ff 3c
       -0.023335883 -0.035263218 -0.021374287 0.031167664
000070 16 43 d7 3d 41 6b 21 be d5 40 0b bd 32 ab 09 3c
       0.105108425 -0.1576357 -0.033997376 0.008402633
000080 de fa a0 bd 11 31 a9 bc 0f 39 9c 3d 08 30 93 3b
       -0.07860349 -0.02065328 0.076280706 0.0044918098
000090 f7 ea f9 bc 07 86 83 bd 40 50 ca 3d d7 bf 54 3c
       -0.030507548 -0.06422048 0.09878588 0.012985191
0000a0 50 83 89 bc 90 6e 98 bc f7 e8 38 bd 12 69 bc bd
       -0.016786247 -0.018607408 -0.045144048 -0.09199728
0000b0 66 66 da 3c 0a ba 3f 3c a2 64 18 3d c8 ea 3d 3d
       0.026660156 0.01170207 0.037205346 0.046366483
0000c0 69 dd 92 bd bc 17 68 bd d0 e4 03 3c b7 24 a1 bd
       -0.07171137 -0.05666326 0.008050159 -0.07868331
0000d0 c7 7b fe bc 75 92 a1 bd 25 66 22 bc 39 e9 0e 3d
       -0.031064881 -0.078892626 -0.0099120485 0.034890387
0000e0 50 b4 6f bd b3 4e a6 3d a4 3b b9 bd 18 cd 40 3d
       -0.05852157 0.081204794 -0.09044579 0.047070593
0000f0 25 53 88 bd 2b c7 7f 3b fd 6a 13 bd 02 55 2c 3d
       -0.066564836 0.0039028625 -0.035990704 0.042073257
000100 20 1e b7 3c c2 8b 5e 3d 8f f1 83 bd 8b 27 76 3d
       0.022353232 0.054332502 -0.06442558 0.060096305
000110 59 89 e5 bd ca 26 38 3b a1 72 5c bc 45 19 de 3c
       -0.112078376 0.0028099292 -0.013455064 0.027111659
000120 7b 74 22 3d d6 0c 40 3d af 4f 76 3d 8d d7 b9 bd
       0.039661866 0.04688724 0.060134586 -0.09074316
000130 3a 76 42 bc e5 bb 51 bd da 0b 0d bd 88 1a 8d 3d
       -0.011869008 -0.05120458 -0.03443513 0.06889826
000140 4b 6e 14 3c f8 23 e9 3c c1 47 62 bc 1b 01 22 bd
       0.009059499 0.028459534 -0.013811053 -0.039551836
000150 c6 77 25 bc 0c 15 d6 bc 4f a3 c1 bc ef 66 c7 bc
       -0.010099357 -0.026133083 -0.023637442 -0.024341075
000160 26 f9 24 3d c4 6b a1 3d c9 2a f4 bb 9f 5c f0 3d
       0.04027667 0.07881883 -0.0074513895 0.11736416
000170 0f b2 ee bc 36 90 90 3d eb a3 83 3d 77 3d a9 bd
       -0.02913764 0.07058756 0.06427749 -0.082636766
000180 20 01 7d 3d 2c 2c 4c bd f7 10 41 3d ad c2 1e 3c
       0.06176865 -0.049846813 0.04713532 0.009689969
000190 f2 41 ab 3d 7d 9f 89 bd 49 b8 4c bd ce 4d a0 bd
       0.083621874 -0.06719873 -0.049980436 -0.0782734
0001a0 d1 45 9f 3d 38 03 80 bd 41 71 36 bd 9a 27 33 3d
       0.07776988 -0.06250614 -0.0445416 0.04373894
0001b0 fb a4 d0 bd 7b 98 38 3d 4b a2 9a 3d 2c d2 81 bd
       -0.101877175 0.04506729 0.07550486 -0.06338915
0001c0 06 28 94 3d 9e da 54 bd dc 08 72 bd b1 3d d5 3c
       0.07234196 -0.051966302 -0.05909048 0.026030393
0001d0 3e 24 7f bc 9c 58 d2 bd 96 f6 92 bd ef 0d 45 3d
       -0.015572606 -0.10270807 -0.07175939 0.04810899
0001e0 05 81 26 3d 64 45 07 bd 21 b9 8c 3d d9 3e da bc
       0.040650386 -0.03302516 0.06871248 -0.026641296
0001f0 7a a6 07 bd 13 92 0f bd 96 93 0b ba 46 f7 5a 3d
       -0.03311775 -0.035051417 -0.0005324421 0.053458475
000200 7e ae 99 3d de ee 6f bd 20 fc 77 bc b8 f7 90 3d
       0.07503985 -0.05857741 -0.015135795 0.070784986
000210 b3 08 de bd 53 36 1f bd 4e f0 6d bd 3a 86 94 3d
       -0.10841503 -0.038870167 -0.0580905 0.07252164
000220 49 fc 7b ba 87 62 84 3c 76 e7 a5 3d 65 da 07 3d
       -0.00096124836 0.016160263 0.08100788 0.03316726
000230 70 4c 4c 3c a2 55 4a 3d 12 7d 70 bd 0f 6c 7e 3d
       0.012469396 0.049398072 -0.058713026 0.06211477
000240 68 88 b0 bd 63 cd 99 3d 24 76 5c bd 31 a7 2f bd
       -0.086197674 0.075098775 -0.053823605 -0.042884056
000250 b0 16 9d 3c 7e 37 4e bd 7b 5b 0f 3d e6 be 5c 3d
       0.019175857 -0.05034589 0.034999352 0.053892992
000260 a0 02 2b bd c7 a8 ab 3d 29 e5 07 3d 20 d9 69 3d
       -0.04175055 0.08381801 0.03317753 0.057091832
000270 9d 68 a7 bb 4b d8 11 3d e1 4f 25 3d 51 d0 45 3d
       -0.0051089064 0.035606664 0.04035938 0.04829437
000280 ba 6b 9a 3d 52 22 9f 3d 2a 4a a5 bd 30 07 81 3d
       0.075400785 0.07770218 -0.08070786 0.06300199
000290 85 c1 9c bd 1c e4 8b bd d1 de 90 bb 78 b2 4a bd
       -0.076540984 -0.06830618 -0.004421093 -0.049486607
0002a0 92 fb 6e 3d c7 8a 1b 3c b2 92 33 be 54 b5 9d bc
       0.058345385 0.009493536 -0.17536429 -0.019251503
0002b0 8e 90 8c 3d 5e 33 2c bc 1f 2d a5 bc 0b 62 15 bb
       0.06863509 -0.010510294 -0.020163117 -0.0022794034
0002c0 9a 21 73 3d 6c de 9f 3d 65 4c a5 3d a4 02 ae 3d
       0.059358217 0.078060955 0.08071212 0.084965974
0002d0 c0 19 93 3c 22 eb 52 3b 4a 64 53 3d f8 c3 4c bd
       0.017956614 0.0032183607 0.051609315 -0.049991578
0002e0 26 92 af 3d 13 ba 73 3d c8 c8 5b 3d 37 17 33 bd
       0.085727975 0.059503626 0.053658277 -0.04372331
0002f0 37 ac 09 bd 74 0b 3b bc 6d af b5 bd b0 e8 98 3d
       -0.033611502 -0.011416305 -0.088713504 0.074662566
000300 23 a5 2c bd 1a 0f 60 bd a1 0a d5 bc 74 9f be bc
       -0.042149674 -0.054701902 -0.026006045 -0.023269393
000310 cc 3f 9c 3d 9c 8d 12 3d a7 31 09 bd d7 22 71 3d
       0.07629356 0.03577958 -0.033494618 0.058871116
000320 48 42 00 bd ec 12 4a 3d 48 87 f0 3b e9 81 12 bc
       -0.03131321 0.04933445 0.0073403455 -0.008942106
000330 9e c9 ae bd fd 3e 0e 3d 60 37 77 3d 5a 8c 72 bd
       -0.08534549 0.03472804 0.060355544 -0.05921588
000340 c8 47 81 bd 26 c5 94 bd 8c 35 ef bc ba dc 63 3c
       -0.06312519 -0.072641656 -0.029200338 0.013907606
000350 5e 16 18 bb 0c 8a 06 3c d4 9f 81 bb 82 89 9f bd
       -0.0023206691 0.008211624 -0.0039558206 -0.077898994
000360 e9 09 03 3d 69 4b 98 bd 17 ba 87 3d 93 75 f0 bc
       0.031991873 -0.07436258 0.06627291 -0.029352939
000370 62 8b d2 3d 7e ce 8f 3d d8 70 26 bd d1 71 4a bd
       0.102804914 0.07021807 -0.04063496 -0.04942495
000380 85 79 75 3d bc 6a 5e bd e6 bf 7b bd bf c0 0b 3c
       0.059930343 -0.05430101 -0.061462305 0.008529841
000390 43 f9 da 3d 64 66 8d bd ee 33 d1 3b 72 2c 8a bd
       0.10692074 -0.06904295 0.0063843643 -0.067467585
0003a0 86 15 5c 3d 51 9a 86 bd ae d3 84 3d f3 3f 6b 3d
       0.053731464 -0.06572402 0.06485687 0.057434034
0003b0 70 3f 85 bd 1e 60 18 3d 8e ba 02 3d 48 8b ee 3c
       -0.0650624 0.03720104 0.031916194 0.029119149
0003c0 be ce 39 bb 0e c2 77 3d d7 2b 8b 3d 2a f8 87 3d
       -0.0028351988 0.0604878 0.06795471 0.066391304
0003d0 c3 bc 80 3d dc 36 5e bc a4 e0 6d 3d 9b a2 3c bd
       0.062860034 -0.013562884 0.058075562 -0.04605351
0003e0 fc 55 02 bc c0 b3 5c bd 93 5d 0f bd a8 96 54 3d
       -0.007955071 -0.05388236 -0.03500135 0.05190149
0003f0 5d 9a 4a 3c 99 f8 23 bd 02 fa 4c 3d 68 8a c0 bd
       0.012365905 -0.040032003 0.050043114 -0.09401399
