pos_cls/gpt2-large/layer_19.pt (torch, 241889 bytes, 1 tensors)

weight f4 [47, 1280]
-0.035437264 -0.014267167 0.006530811 -0.031644177 0.009205068 0.0043500904 -0.021854412 -0.005297084
0.03144629 0.04606698 0.021215761 -0.0044459254 0.013680823 0.019307196 -0.021130161 0.045914337
-0.033097494 -0.012653955 -0.023317212 -0.006653159 -0.009361928 -0.010305458 0.020713154 -0.0020883484
0.008802673 -0.009232801 0.013849588 -0.0007717956 0.019498676 -0.016994162 0.010295577 -0.010737273
-0.02492019 -0.0119868275 0.04304268 -0.027934294 0.0039135274 -0.030841079 0.026633192 -0.0029648808
-0.023259155 0.024138356 -0.037223794 -0.022143073 0.0016271126 -0.015362333 0.008801153 0.039337132
-0.0077831433 0.0073474115 -0.012461003 0.0049082306 -0.04750244 -0.031978603 0.0408787 -0.015291481
-0.013897813 0.0028963203 -0.019168602 0.028693253 0.0060382416 0.008634726 0.00401436 0.02941616
0.029504802 -0.004115581 -0.037052136 -0.012722546 0.011764085 -0.038224816 -0.0011097058 -0.0061027133
0.0022120087 -0.0065663047 0.02332748 0.001890279 -0.015304626 -0.01953584 0.011143316 0.041784342
-0.021191278 0.00070103904 0.017240463 -0.00041464457 -0.004394503 -6.7599896e-05 -0.019563895 -0.037002575
0.0029168893 0.004767347 0.034294233 0.0050472454 -0.017312111 0.03831636 0.0072650895 -0.029250711
-0.0062937126 -0.041276213 -0.020511348 0.03552964 0.0019090954 -0.0074876277 -0.015296939 -0.047365513
0.036092173 -0.013042045 -0.021651587 -0.01124881 0.008055237 0.03577197 0.044902034 -0.004112837
0.0077565005 -0.010940591 -0.029285945 -0.025871804 -0.039325237 -0.027856447 -0.02770119 -0.0058485353
0.02563146 0.015766373 0.00024033443 0.016159171 -0.033048477 -0.030585948 -0.007995057 0.008496423
-0.02407327 -0.0023307558 -0.0054563 -0.0015452929 9.08875e-05 -0.043433987 -0.04392758 0.02475249
0.026074903 -0.042947214 0.017398857 0.02130126 0.0056433547 -0.029618613 0.009497024 0.02233811
-0.028319377 0.017625012 0.00031306312 0.0050892835 0.011407749 0.017738223 0.018682173 -0.028662505
0.011669845 0.011457088 0.007906692 -0.00647457 0.016344022 -0.0034396346 0.008107836 0.0054526064
0.0026701312 0.0138564035 -0.012449739 -0.00701514 0.013675999 -0.014849691 -0.021359866 0.018944556
-0.02046689 0.001657932 0.012908109 0.0016052093 0.016988968 0.03771783 0.01763464 -0.016411865
0.008231155 0.019650918 0.01538075 0.004430594 0.036680926 -0.0093493285 0.007612866 -0.0013947932
0.056373 0.02925217 0.04250536 0.03138294 -0.00016584247 -0.010889084 0.003165068 -0.019458858
-0.023234384 -0.017097557 -0.014613415 0.033235785 0.011406884 0.003518226 -0.01837669 -0.007670716
0.006468052 0.010128353 -0.020195458 -0.023729112 -0.014537436 0.016718112 0.019084005 -0.013244709
-0.025065126 -0.005430637 0.015964376 0.021003822 0.016572488 -0.002548429 -0.010199073 -0.02220772
0.0021352274 -0.013200755 -0.004008971 0.010540649 0.011008452 0.014748448 0.008420412 0.01200551
0.0008413073 0.0325393 0.006605584 0.0012553065 0.010937994 -0.005778205 0.02418094 0.008739836
0.029182365 -0.0047659716 -0.019873453 0.04447196 -0.002372733 0.0054158294 0.019170117 -0.03372418
0.0073068324 0.0029771053 0.037459515 -0.012441541 -0.004679287 -0.03282775 0.03262442 -0.043369867
-0.014426605 0.0021594164 -0.032772277 -0.0030395458 0.03055849 -0.001860012 0.001610535 -0.03454388
00000000: aa26 11bd d6c0 69bc 6a00 d63b 539d 01bd
00000010: dbd0 163c 348b 8e3b 0608 b3bc 2993 adbb
00000020: d3cd 003d bbb0 3c3d adcc ad3c 20af 91bb
00000030: 8825 603c 202a 9e3c 2919 adbc ac10 3c3d
00000040: 3d91 07bd 8952 4fbc bd03 bfbc be02 dabb
00000050: c662 19bc 39d8 28bc a2ae a93c acdc 08bb
00000060: 1639 103c 2d45 17bc 62e9 623c 5352 4aba
00000070: b0bb 9f3c 5737 8bbc c8ae 283c 63eb 2fbc
00000080: 6d25 ccbc 6664 44bc 854d 303d 76d6 e4bc
00000090: 0c3d 803b 6ea6 fcbc da2d da3c 724e 42bb
000000a0: fc89 bebc cdbd c53c fa77 18bd 6465 b5bc
000000b0: d744 d53a 4bb2 7bbc b632 103c f91f 213d
000000c0: bd09 ffbb 8ec2 f03b 3c29 4cbc 39d5 a03b
000000d0: eb91 42bd fffb 02bd 6c70 273d 1f89 7abc
000000e0: a7b3 63bc 31d0 3d3b 7907 9dbc 1d0e eb3c
000000f0: 71dc c53b aa78 0d3c e48a 833b 29fa f03c
00000100: 0eb4 f13c ffdb 86bb fbc3 17bd 3a72 50bc
00000110: 26be 403c a091 1cbd 8c73 91ba 45f9 c7bb
00000120: 59f7 103b 282a d7bb 4519 bf3c 3dc3 f73a
00000130: 41c0 7abc a009 a0bc 7492 363c 0f26 2b3d
00000140: 5599 adbc efc5 373a df3b 8d3c a764 d9b9
00000150: c3ff 8fbb 6bc4 8db8 7644 a0bc 0390 17bd
00000160: 4829 3f3b 6837 9c3b 1c78 0c3d 5d63 a53b
00000170: 21d2 8dbc 9ef1 1c3d fd0f ee3b 309f efbc
00000180: 7d3b cebb 3f11 29bd 6a07 a8bc 8787 113d
00000190: 9d3a fa3a c65a f5bb 03a0 7abc 5702 42bd
000001a0: 63d5 133d 4dae 55bc ab5e b1bc ee4c 38bc
000001b0: 1dfa 033c a185 123d 32eb 373d fac4 86bb
000001c0: 3e2a fe3b 2a40 33bc 14e9 efbc 1bf1 d3bc
000001d0: 8013 21bd 3433 e4bc 9bed e2bc 12a5 bfbb
000001e0: 11f9 d13c 7b28 813c 4802 7c39 3d60 843c
000001f0: d75d 07bd 628f fabc b3fd 02bc 9534 0b3c
00000200: 4e35 c5bc 98bf 18bb c3ca b2bb 6d8b caba
00000210: db9a be38 d6e7 31bd 68ed 33bd bcc5 ca3c
00000220: 099b d53c 6be9 2fbd 0c88 8e3c fb7f ae3c
00000230: e4eb b83b bca2 f2bc 6899 1b3c 69fe b63c
00000240: 0afe e7bc 5462 903c 9f22 a439 01c4 a63b
00000250: 91e7 3a3c c04f 913c 5b0b 993c a1cd eabc
00000260: e132 3f3c 83b6 3b3c 128b 013c a128 d4bb
00000270: e6e3 853c 7e6b 61bb bbd6 043c c7ab b23b
00000280: 5efd 2e3b f805 633c fdf9 4bbc 42df e5bb
00000290: 4c11 603c 1e4c 73bc e3fa aebc 9d31 9b3c
000002a0: 2eaa a7bc f74e d93a 897c 533c e365 d23a
000002b0: 732c 8b3c 037e 1a3d 8576 903c 2d72 86bc
000002c0: f7db 063c f6fa a03c 8bff 7b3c 842e 913b
000002d0: bd3e 163d ed2d 19bc 5975 f93b 7ed1 b6ba
000002e0: 60e7 663d 3fa2 ef3c 1a1a 2e3d 668b 003d
000002f0: 00e6 2db9 2168 32bc 086d 4f3b 2f68 9fbc
00000300: 0956 bebc 2d10 8cbc 1b6d 6fbc 3f22 083d
00000310: f0e3 3a3c 0a92 663b b68a 96bc a15a fbbb
00000320: f4f1 d33b 64f1 253c f270 a5bc 8e63 c2bc
00000330: 6d2e 6ebc 6cf4 883c 0f56 9c3c 5600 59bc
00000340: 6155 cdbc 7cf3 b1bb b9c7 823c 3510 ac3c
00000350: 07c3 873c 8b03 27bb 031a 27bc f7ec b5bc
00000360: 2cef 0b3b fb47 58bc b05d 83bb b0b2 2c3c
00000370: cb5c 343c 79a3 713c c5f5 093c c2b2 443c
00000380: 2d8b 5c3a ee47 053d a873 d83b 1989 a43a
00000390: 4635 333c 1957 bdbb 1b17 c63c 8731 0f3c
000003a0: db0f ef3c de2b 9cbb a7cd a2bc 3b28 363d
000003b0: db7f 1bbb 4577 b13b a60a 9d3c 5e22 0abd
000003c0: 276e ef3b 8a1b 433b 266f 193d 9bd7 4bbc
000003d0: b454 99bb 6476 06bd 2fa1 053d 9aa4 31bd
000003e0: 915d 6cbc ff84 0d3b 393c 06bd 1e33 47bb
000003f0: cc55 fa3c a5cb f3ba 9618 d33a e27d 0dbd
