artifacts/gpt2_probe_layer_10:v0/layer_10.pt (torch, 787681 bytes, 1 tensors)

weight f4 [256, 768]
000000 81 8e 41 3d 86 c5 70 3c 64 41 51 3d 29 fd 84 3c
       0.047255043 0.014695531 0.051087752 0.016233997
000010 8a 93 ba bc bf 78 1c 3d 76 5e 23 3d ee 43 d9 bc
       -0.02277543 0.03820109 0.039885007 -0.02652165
000020 52 85 26 3a 32 be f8 3c af c1 51 3d f1 50 8e 3c
       0.0006352264 0.03036413 0.0512101 0.01737258
000030 f5 09 94 3c f7 bd 0c 3c 6b 95 75 3b a6 0c 96 bc
       0.018071154 0.008590213 0.0037473093 -0.018316578
000040 9a 39 e9 bc a6 fa fd 3c b2 8e 85 bc 9d 85 82 bc
       -0.02846985 0.031003308 -0.016303394 -0.015932852
000050 fa 0b ec bc fc 93 2a 3d cd 2e 4e bc 4e 10 38 3c
       -0.028814305 0.041645035 -0.0125844 0.011234356
000060 c3 e6 f4 bc 51 8f 2b 3d 73 1c 42 3a a4 8e b1 bc
       -0.029895192 0.041884724 0.0007404752 -0.021674462
000070 22 8d 86 3d 82 a8 9a bc 0a ed a8 3d 94 eb d7 bc
       0.06569888 -0.018879179 0.082483366 -0.02635745
000080 d5 13 07 3b e5 8d 3a 3c 06 ef f5 bc bb dd 36 bc
       0.0020611186 0.011386369 -0.030021202 -0.011161263
000090 1d 9f 28 bc 86 9b 93 3c 50 07 b8 3c 61 b0 1c 3d
       -0.010291842 0.018018495 0.022464424 0.038254146
0000a0 43 e6 91 3c 22 c1 0a bd 8b 96 98 bb 70 2c fb bb
       0.017809993 -0.033875592 -0.004656618 -0.0076652095
0000b0 12 7f 75 bc bb 26 78 bd 1e 78 f8 3c 7d b0 b8 3c
       -0.014983909 -0.06058381 0.030330714 0.022545094
0000c0 f5 93 5d ba a8 7e 8e 3d 51 fa ae bc e9 c1 8b bc
       -0.0008452528 0.069577515 -0.021359595 -0.017060237
0000d0 06 3f 63 3c dc e7 d7 bb 36 26 86 bb 27 c1 34 bc
       0.013870006 -0.006588919 -0.0040939106 -0.011032379
0000e0 2d 24 51 bc f0 d0 4a 3c 0a 3e 14 bc 57 11 29 bc
       -0.012764973 0.012378916 -0.009047994 -0.010319076
0000f0 6d 99 95 3c 8a 38 01 bd a3 6d 0e bb f9 ee 9a 3c
       0.018261636 -0.03154806 -0.002173283 0.01891278
000100 40 ee 93 bb 81 06 03 3c b0 20 94 bc 00 e0 91 bc
       -0.0045144856 0.007997156 -0.018081993 -0.017807007
000110 2f 6e 90 bd 6c 1c fc bb 1d cc 31 3d 37 4e 75 3c
       -0.07052266 -0.007693818 0.04340755 0.014972261
000120 d9 25 95 bb 4b d8 1a bd 30 c6 02 3d dd 81 7a 3b
       -0.004551631 -0.03780393 0.031927288 0.0038224377
000130 a2 6b 02 bb bf f0 4c 3b 92 4f 2c bd 45 99 2b 3d
       -0.001990058 0.0031271426 -0.04206807 0.041894216
000140 bb d0 0c 3d d3 3b 56 bc ee f0 14 3d 79 a2 c0 3c
       0.03437875 -0.013075787 0.03636258 0.023514973
000150 c6 fb 15 3d 62 dd 25 bd e3 1d 68 3c ae 15 18 be
       0.036617063 -0.04049433 0.014167282 -0.1485202
000160 e7 60 8b 3c e9 49 04 3d 78 cd a9 3c 92 92 ab bc
       0.01701398 0.03229705 0.020727858 -0.020943914
000170 c8 4c 10 3c 26 c1 92 bc f0 64 3f 3d bd 3e e1 bb
       0.008807369 -0.017914366 0.04672712 -0.006873934
000180 c0 21 0c bc 8f da 79 3c 35 84 02 3d 10 32 09 bd
       -0.0085529685 0.015249862 0.031864364 -0.03349501
000190 86 9a 6d 3a 9e 0a 89 bc 31 9a d5 3c ca 58 08 bd
       0.00090638583 -0.016728695 0.0260745 -0.0332878
0001a0 bd 28 6d 3c a6 4e 8d bc 7a 15 42 3c 50 9e d2 bc
       0.014475045 -0.017249417 0.011845941 -0.025710255
0001b0 22 e6 db bb 99 0a 54 bc 76 69 19 bd 8f 84 d0 3c
       -0.0067107836 -0.01294198 -0.03745409 0.025453834
0001c0 8a c4 65 3c ac aa 2b 3d 1c 22 22 3c 4e 86 e0 37
       0.014023909 0.041910812 0.009895828 2.6765421e-05
0001d0 19 3a 0f 3d ef 6a 33 3b 53 b7 4c bc cf 68 6b bd
       0.034967516 0.002737697 -0.01249488 -0.057473
0001e0 ce 93 4e bc 8e 03 ab 3c f4 81 8b 3b 08 b2 ec bc
       -0.012608482 0.020875718 0.004257435 -0.028893486
0001f0 ba a3 04 3d d4 2b 91 bb 83 80 1e 3d 1c 59 92 bc
       0.032382704 -0.0044302735 0.038696777 -0.017864756
000200 c1 77 05 3a c6 1f 67 3c 04 68 f7 bb 97 13 2a bd
       0.0005091392 0.0141066965 -0.0075502414 -0.04152259
000210 1d ed 0a bc 84 fa b6 bb e3 a3 0a 3b 64 72 74 3c
       -0.008479384 -0.005584063 0.0021154813 0.014919851
000220 b0 61 f1 3b e5 be cb 3c ed f1 0b 3d 3f 2a b1 3c
       0.0073663816 0.024871299 0.034166265 0.02162659
000230 32 12 bb 3c d9 bb ae 3b 9c 98 ac bc c6 01 35 bc
       0.022835825 0.005332452 -0.021068864 -0.011047786
000240 f4 22 45 3d b8 c9 ed bc 4f 2b 74 bc ee 94 ec bc
       0.048129037 -0.029026851 -0.014902904 -0.028879609
000250 60 7b f3 bc 9e 54 cd 3c e3 96 81 bb a0 06 07 bd
       -0.029721916 0.025064763 -0.0039547547 -0.032965302
000260 5c f3 30 3c 80 57 60 bb 0c ab fc ba 21 61 9f 3c
       0.010800209 -0.0034231842 -0.001927705 0.019455494
000270 c4 de 37 3b 3b b0 bd 3a 19 b3 38 bd 06 91 06 3d
       0.0028056363 0.0014472076 -0.045092676 0.03285315
000280 90 37 31 bd 30 58 50 3c a2 4f 6c bc d6 24 23 bd
       -0.04326588 0.012716338 -0.014423283 -0.03983005
000290 0b 51 df bc 70 c1 43 bc 71 25 a7 3b 64 8e ca 3c
       -0.027260324 -0.011947975 0.005100899 0.0247261
0002a0 32 72 c5 3b b4 40 3c bc 24 2d 57 3d 32 af a3 bc
       0.006025576 -0.011490036 0.052533284 -0.019981
0002b0 9c 60 7d 3c 8e 7d 52 bc 9f 29 04 3d a3 16 34 bc
       0.015464928 -0.012847317 0.032266255 -0.010991725
0002c0 28 de 49 3c 84 f4 b2 bd 0b c3 62 bc df fe 49 3d
       0.012321033 -0.08738044 -0.013840447 0.04931533
0002d0 b0 47 ac bd 9f 46 e8 bb 64 59 58 bd 87 1a b3 3c
       -0.08412111 -0.007088497 -0.052819625 0.021863235
0002e0 2a 5c 66 3c c8 52 d3 bb 33 1f ce 3b a8 38 f7 ba
       0.01406006 -0.0064490773 0.0062903403 -0.0018861489
0002f0 d4 51 68 bc 49 31 7f 3d 09 ab 49 3d cc 16 0b 3d
       -0.014179666 0.06230286 0.049235377 0.033957288
000300 04 5d 35 3c 69 a6 8b bc 10 69 14 3d 97 a3 84 bd
       0.01106954 -0.017047124 0.036233008 -0.06476515
000310 da e5 88 bc 56 65 59 bc e6 29 be 3c 08 db ee 3c
       -0.016711164 -0.013268789 0.023213338 0.029157177
000320 dc ba 9f 3d 87 00 0d 3d 90 ee bb bc ed c8 6b 3d
       0.077993125 0.03442433 -0.022940904 0.057564665
000330 2d 7e a4 bc 8e e6 10 bd a9 67 f9 3b fb 35 2f 3d
       -0.020079697 -0.035376124 0.007611234 0.04277609
000340 0f 65 52 3d a9 22 1d 3c 2b 4f 90 3c 38 56 51 3d
       0.05136591 0.009590783 0.017615875 0.051107615
000350 62 66 bd bc 2e 88 5d 3d 9b 97 ac bc be c0 be 3c
       -0.023120109 0.05408495 -0.021068385 0.023285266
000360 a5 39 14 3d b3 c3 40 bd 23 81 19 bc 62 d4 51 bb
       0.036187787 -0.047061633 -0.0093691675 -0.003201746
000370 34 df f6 bb 46 4d e9 3c aa 51 31 3c 17 62 de 3c
       -0.007533932 0.02847923 0.010822693 0.027146382
000380 f9 df 09 bc 0c 48 36 3d bb 1e d4 3c 7e 90 55 3a
       -0.008415216 0.044502303 0.02589356 0.0008146836
000390 a0 21 81 bc 52 1f af 3c 1c b7 6d 3c f2 b0 1d bd
       -0.015763104 0.02137724 0.014508989 -0.038498826
0003a0 92 ad 09 bd 2b 3b 20 bb 69 54 c8 3b ce 03 eb 3b
       -0.033612795 -0.002444933 0.006113578 0.0071720844
0003b0 2c 62 c0 3c 20 4d 32 3c 69 5f 14 bd cd 99 66 3c
       0.023484312 0.010882646 -0.036223803 0.014074755
0003c0 b3 84 8f bc 59 32 14 3a b8 d7 59 3d fd 27 eb bc
       -0.01751933 0.00056532543 0.05318424 -0.028705591
0003d0 a7 8e a2 3b fd 3c 72 bc 96 09 12 3d e3 4b 95 bc
       0.004960853 -0.014785049 0.035653673 -0.018224662
0003e0 26 fe cd 3c fb 5c 2a 3c b4 5b 20 bd e9 a0 5b bb
       0.025145601 0.010398145 -0.039149955 -0.0033512658
0003f0 e9 ba ef 3b 7f 6c e1 bc 85 7d 9b bc 29 92 3e 3c
       0.0073159826 -0.027517555 -0.01898075 0.011631527
