pos_cls/gpt2/layer_6.pt (torch, 145628 bytes, 1 tensors)

weight f4 [47, 768]
000000 52 4d 8d bd 28 53 82 3b 55 67 d2 3b c0 50 c5 ba
       -0.06899513 0.003977198 0.0064210095 -0.0015053973
000010 59 21 e6 bb a1 34 72 3b c0 b7 c4 3b 80 e5 f0 bc
       -0.0070230183 0.0036957639 0.00600335 -0.02940631
000020 a0 29 5a 3c 5d 99 90 3c f9 e5 28 3d d5 98 d7 bb
       0.013315588 0.017651254 0.041234944 -0.0065794983
000030 fc e7 3e 3d da 65 13 3d 7a 46 97 bb 78 8b 5b bb
       0.046607956 0.035985805 -0.0046165558 -0.0033499878
000040 c2 15 19 3d 6c ae b7 3b 4c b9 3a 37 60 94 7a bc
       0.037374265 0.0056055095 1.1129607e-05 -0.015294164
000050 94 de 66 bd 24 72 52 bd 88 2d 92 3c a2 5d 00 3d
       -0.05636461 -0.051378384 0.017843977 0.031339295
000060 a3 ab e7 3c fe a9 bf bc 08 f0 68 bd b8 f3 13 bc
       0.028280085 -0.023396488 -0.056869537 -0.009030275
000070 eb 37 fa bc 78 a8 c4 bc ac 23 bf bc 45 c7 f1 3c
       -0.030544242 -0.024006113 -0.02333244 0.029513964
000080 d7 e6 87 3c 8a 57 13 3d 87 5f b1 bc 98 c9 82 bd
       0.016589565 0.035972156 -0.021651996 -0.06386107
000090 38 a6 61 bc c1 10 66 3d 70 42 60 bc 11 f1 b5 bc
       -0.01377254 0.05616832 -0.013687715 -0.022209676
0000a0 65 eb 62 bc 82 93 59 bc cc cc 8d bc e7 a9 06 bc
       -0.013850068 -0.0132797975 -0.017309569 -0.008219219
0000b0 2e 52 13 3d 4d 78 44 bd 56 a7 51 bd 00 0c ba bc
       0.035967045 -0.04796629 -0.051184975 -0.0227108
0000c0 73 14 44 3c 1d b6 d5 3a fc 4e 0c 3c cf f9 0b bd
       0.011967766 0.0016304884 0.008563753 -0.034173783
0000d0 af b1 2a 3d 8a 12 e8 bc 69 89 84 3d 8d 5d ab 3b
       0.04167336 -0.028329153 0.064715214 0.005229658
0000e0 08 3f ba bc 32 23 1f 3d 57 b6 7b bc ee 08 52 3d
       -0.022735134 0.038851924 -0.015363297 0.051278047
0000f0 33 f3 17 3c 02 ff 73 3d f1 b9 bc bc 76 94 00 bd
       0.009274292 0.059569366 -0.023037883 -0.031391583
000100 f3 92 e8 3c 42 5c f1 3b a5 a7 8b 3b b1 e6 28 bd
       0.028390383 0.0073657343 0.004261928 -0.04123563
000110 21 03 09 3d 24 4c 57 3d c3 b2 b9 3b 16 a4 af bc
       0.03345025 0.052562848 0.005667062 -0.021440547
000120 07 d0 ab 3c ea 33 8a bc 8d 4a 94 bb aa 6d e9 bc
       0.020973219 -0.016870458 -0.0045254887 -0.028494675
000130 88 f3 95 bc 57 7d 9b bb a1 39 3e 3d 20 a4 3f bc
       -0.018304601 -0.0047451663 0.046441678 -0.011696845
000140 d4 76 0e bd f5 63 0f 3c 7a 72 c3 3b 0f 61 9e bc
       -0.034781292 0.008751859 0.0059645744 -0.01933339
000150 0f fe 49 3b 89 c5 3c bd 36 ef d4 bc 34 f5 b3 3b
       0.0030821597 -0.04608682 -0.02599297 0.005491877
000160 cb 4a f8 ba 1d 3e 70 bd 4a 86 a4 bc db dc 98 3c
       -0.0018943188 -0.058652986 -0.020083565 0.01866
000170 d6 31 23 b8 de c8 33 3d ec a9 10 bc 48 46 69 bb
       -3.890864e-05 0.043892734 -0.008829575 -0.003559487
000180 bf 13 18 3d 4b 60 19 bc 79 5b 85 3b ca 76 f4 bb
       0.037128206 -0.009361337 0.0040697423 -0.00746045
000190 7a 2c 6e bb fd e4 08 bd 45 83 be 3c 7b 56 0b bd
       -0.0036342428 -0.033421505 0.023255954 -0.03401802
0001a0 ab 61 4b bd 51 49 45 bc e5 3a 1a 3c ac 5f ff 3c
       -0.04965369 -0.012041406 0.009413456 0.03117355
0001b0 68 23 08 bd de a9 c5 3c 70 a3 0b bc 5f bc 3a 3c
       -0.03323689 0.02412885 -0.008522853 0.01139745
0001c0 eb 73 b8 bc c9 f8 93 3c 7a a9 d0 bc 22 79 f4 3c
       -0.022516211 0.018062966 -0.025471438 0.029842917
0001d0 7f be 07 3c 8b 24 b9 3b 2c 03 88 bc 44 17 ea 3c
       0.008285164 0.005650108 -0.016603075 0.028575547
0001e0 11 43 18 3d 6b 0a 80 ba ea 45 63 bd 20 22 16 3c
       0.037173335 -0.000976873 -0.055486597 0.0091634095
0001f0 08 53 40 3d 7e 09 03 3d c4 2f 23 bd 1f 6d 18 ba
       0.046954185 0.031991474 -0.039840475 -0.00058146
000200 8b 9a 03 3c ba ac 13 3d 97 23 21 3d e5 a7 e9 bc
       0.008032451 0.036053397 0.03934058 -0.028522441
000210 16 a0 6b 3d df d1 03 bc aa 0d bb bb a5 1f 20 3d
       0.057525717 -0.008045643 -0.005708416 0.03909268
000220 d1 af 1c bb a8 27 35 3d 01 ca e6 3b 0e 7e 16 bc
       -0.0023908506 0.044227272 0.0070431237 -0.009185327
000230 ff be 05 bc ba b0 03 3b 26 6b 10 bd b7 d8 c6 3c
       -0.008163213 0.002009435 -0.035258435 0.02427326
000240 24 f9 e0 3b 45 21 20 bb 1f 97 2c bc d7 50 b8 3c
       0.0068656374 -0.0024433893 -0.010534077 0.022499485
000250 09 3a cd bc 98 3c fb 3c ab 09 ed bb ab 7c 8e 3c
       -0.025052087 0.030668542 -0.0072338185 0.01739343
000260 cc e9 c8 bc 3c 00 97 bc f4 7c 01 bd 8b 28 8d bb
       -0.024525546 -0.018432729 -0.031613305 -0.0043078116
000270 e4 22 fb bb e1 a4 3f bd 90 64 c4 3c b3 19 ef 3c
       -0.0076640714 -0.0467881 0.023973733 0.029187059
000280 e8 15 5e 3c 8e 36 37 bd a1 e9 8f bc 92 f1 22 bd
       0.013555028 -0.04472976 -0.017567458 -0.03978116
000290 cd d2 13 bc a3 4b 51 bc 9b c3 b8 3c 9a d3 42 3d
       -0.009022427 -0.012774381 0.02255421 0.04756508
0002a0 ad e6 a3 bb 5e c0 ff bc 11 d5 30 3d 73 ae 54 bb
       -0.005001864 -0.031219658 0.043171946 -0.0032452613
0002b0 d7 52 83 3d e4 8b 95 3c 30 b1 2a bc a3 6d 20 3c
       0.06412285 0.018255182 -0.010418221 0.009791764
0002c0 a7 3d 19 3d 5e fd e7 3c d8 73 13 bd a7 a8 30 bd
       0.037412312 0.028319057 -0.03599915 -0.04312959
0002d0 31 89 e9 3c 4c 41 05 bc 84 73 b5 3c bd 6e 53 bc
       0.0285078 -0.008133244 0.022149809 -0.01290482
0002e0 50 fb 14 3d 53 62 7c 3c ec 30 34 bd 3e 92 68 3b
       0.036372483 0.015404302 -0.043991968 0.0035487558
0002f0 3a 6b 38 bc 5e 0c 2f bc 4a d4 ac bc ee 6c 1d bc
       -0.011256034 -0.010684101 -0.021097321 -0.00960849
000300 2a da 16 bc f2 e5 1d bc 25 3a 55 3d 79 4a 47 bc
       -0.009207288 -0.009637343 0.052057404 -0.012163752
000310 2a 98 b0 3c 21 4f bc 3a ac ea 73 3d e8 46 34 3d
       0.021556932 0.0014366844 0.059549972 0.044012934
000320 14 d9 a1 bb 94 d8 3e 39 22 09 e0 3c 34 45 11 bc
       -0.004939208 0.00018200494 0.027348105 -0.008866597
000330 d9 8e 10 bd 06 f1 02 3d c0 a4 8e bb 62 4c 45 bd
       -0.03529248 0.03196814 -0.004353136 -0.048168547
000340 13 ff 91 3b c3 0a e2 3c 15 8b cf 3c 56 7f ae 39
       0.004455456 0.027593022 0.025334874 0.0003328274
000350 ea 54 34 3c 37 52 16 3d 0c ca 4d 3d e1 31 b3 3c
       0.011006573 0.0366995 0.050241515 0.02187437
000360 a5 9e d6 bb d0 9c 43 bc fc 1c 23 bd da 0a 44 bd
       -0.0065496736 -0.0119392425 -0.039822564 -0.04786191
000370 69 38 0b bd 6e 9e 84 bc 28 1a 1e 3d 2a 7c 63 bc
       -0.033989344 -0.016188826 0.038599163 -0.0138845835
000380 db 30 e1 3b 8a 08 8e bc c9 e4 38 bc 84 ae e7 3c
       0.006872279 -0.017338056 -0.011285015 0.028281458
000390 ef 7f f9 bb af 57 cd bc e5 60 67 3d 14 c1 eb bc
       -0.007614128 -0.025066225 0.05648889 -0.02877859
0003a0 60 3a 21 bc 0f 79 8a bc 95 c4 d7 bc a7 dd 2e ba
       -0.009840578 -0.016903428 -0.026338855 -0.0006670602
0003b0 be 40 51 3c 3e 7d 7f ba e3 3a 1e bd 33 70 1f 3b
       0.012771783 -0.00097461406 -0.038630378 0.002432835
0003c0 92 5d 04 3d 5e 3e a9 3c 94 24 02 bb c5 47 d5 bc
       0.032315798 0.020659622 -0.0019858228 -0.026035199
0003d0 c3 68 1b bd 0e 43 b3 bc fb 07 5a bd 9e fc 47 bd
       -0.037941705 -0.02188256 -0.053230267 -0.0488249
0003e0 3b 81 6c bc e3 d1 3a bd 50 d1 c1 bb 73 33 1f bb
       -0.014435108 -0.04561032 -0.0059148446 -0.002429214
0003f0 8d 65 53 bb 77 2e 59 3c 71 d5 71 3b 78 f9 c8 3c
       -0.0032256574 0.013255707 0.0036900903 0.024533018
