tree_depth/gpt2/layer_1.pt (torch, 117980 bytes, 1 tensors)

weight f4 [38, 768]
00000000: 76d1 0dbc 66d7 9c3b 6a71 263b 35d7 9f3b
00000010: 41ed 7abc 27e2 8b3c 1f2c 553b 10d0 70bc
00000020: f620 c73b dd46 8d3c a0e5 2abd 60c4 923b
00000030: 3719 9f3c 4bd4 973a 4226 003d ca46 2fbd
00000040: fd19 d53c 2d53 333c b246 a13b fc61 203b
00000050: 7015 243d 9948 c83c d641 c53c 926f 313c
00000060: f9a0 bc3c e427 093d bda6 ebbc 1801 4b3d
00000070: ae4c 0ebd 5431 35bc 5705 b03c f577 0a3c
00000080: e56c 0dbc 9b19 22bd f872 9ebc 1f81 dabb
00000090: 0be2 65bc a3d1 44bb 9961 383c ac28 43bd
000000a0: c46a 00bd d8bb 90bc e9af 30bc d0ad 22bb
000000b0: a912 d8bb ceba 363d 4810 d13c 4e7b c23b
000000c0: c4bc ba3c ef29 cdbb df92 57bc 658f 20bc
000000d0: 115d 8fbc add0 ee3b f559 beba 88d0 5ebd
000000e0: 9a76 89bb 2fc4 943c f5d9 063d 12cb 3f3d
000000f0: 1560 dcbc 2216 0fbd e5d9 ad3c 1a86 c43c
00000100: 4842 463d f756 02bd 180e 81bc 9158 513c
00000110: 8ce8 17bb adfb 91bc c2bd 1b3d 4f73 5ebc
00000120: 403c 343d 5212 eb3b e270 11bb 2f60 95bc
00000130: df20 f2bb 56bc 2fbd 51f0 5d3c ede0 133d
00000140: aa6f 4b3d 05c8 31bd 585d 01bc a256 54bb
00000150: be45 1e3b 8edb 07bd ce8f 8fba 0205 1cbc
00000160: f22b d23b 1ea9 39bc 979b e53c 9d61 bdbc
00000170: 1c56 08bc 6fba d83c ccd9 ef3c 7ee6 893c
00000180: 2ad7 fb3a 30ad 9f3c 280e 25bb 68a5 4ebc
00000190: 4d68 95bc 03c5 4abd e89a 3fbd 8aac db3b
000001a0: 02ce a0bc da37 3f3c e269 82bb d5f0 0b3c
000001b0: 85ff 5abc 285b 54bd 3afb d1bc 1692 2b3d
000001c0: e064 9d3c c7e1 b43c 93ad e13b a127 91bc
000001d0: 8b4b a73c df62 2cbd 735b 853b ec0d c4bc
000001e0: 1809 45bd 031a f33c aa96 26bb 11fd 2dbd
000001f0: 7b72 ccbb b048 8cbb 8c96 7fbc adac 9abc
00000200: b945 193c 1716 943b 5e64 ce3b 630a 33bd
00000210: d3a9 f43c 9445 953c 8f24 8f3c e5c8 adbc
00000220: 5f62 07bd 97bf 503c 14a8 023c b40f da3c
00000230: ed14 2c3b 567f 013d 4004 99bb 23ab 703c
00000240: 8720 04bd ec2d 033d 6965 483d d93b 51bc
00000250: 28fc 42bb cb99 413d 27c0 b3bc 3e48 13bc
00000260: 92e8 50bd 9e80 333b d403 2ebb e137 273d
00000270: 6753 90bc 8bcd 20bd 8b92 ccbc 55ce 813c
00000280: b70c 813b 4701 e33b 80b5 f83b 123a 353d
00000290: 5cdc df3c 29f0 023a 192e d8bc 05d1 0abb
000002a0: bb83 76bc 0bf3 37bd 4dfe 4b3d 686c 5cbc
000002b0: f46d 97bb 324d 4a3c 7a2b f1bc 52a4 eb3c
000002c0: c20a 4d3c 934b 2a3d b92e c1bb 60da 843d
000002d0: 2175 b13c 64a5 fb3c e7f5 2f3c 67da 47bb
000002e0: 5297 42bc b31d 383d 789b 4cbd cdec b138
000002f0: efaf cbbc 482e ba3c 9291 b63c 0914 6b3d
00000300: 8d87 8f3b 9194 30bc 9851 693b 0197 703a
00000310: d8f1 1abb 97b3 a9bc 7558 9d3c 1bf5 b8bc
00000320: e4dd 08bc 5355 66bd defe 923b c2f0 923c
00000330: 6459 d83c fa08 0c3d b1ec c1bc 5809 283c
00000340: 6524 8dba ff6b ce3b 7b4b 40bd 52a9 113d
00000350: 5b39 e3bc 1850 6b3c c180 403d 091a b03b
00000360: e66f 3abc dbc7 94ba 66a6 17bd 5c4c f13c
00000370: 8578 e93c c88c 543c e4a3 2c3d cc31 15bd
00000380: f724 e4bc 4132 823a 63d1 8fbc 7db9 ccbb
00000390: a3b4 08bd 23a6 b53b 6e17 b0bb b165 09bc
000003a0: 127f d63b 68df aa3c fb35 e3bc 23a1 b3bc
000003b0: f4ba 14bc e796 123d 0fb6 0abc 4ce6 a9bb
000003c0: 477e 6d3c 08d7 463c ac2c 3b3c 6e69 683c
000003d0: 5994 2dbc 57a4 4e3d 4042 91b9 65ab 0cbd
000003e0: 03c7 2f3d 3220 673c ac96 5c3d 31fa 6d3d
000003f0: 1847 00bc 31d4 42bd 87cc 6a3c c834 833d
-0.008655896 0.0047864197 0.002539719 0.0048779496 -0.015315355 0.017075611 0.003252752 -0.014698043
0.0060769273 0.017245704 -0.041722894 0.004478976 0.019421203 0.0011583654 0.031286485 -0.04279212
0.026013369 0.010945124 0.0049217576 0.0024472466 0.040059507 0.02444868 0.024079245 0.010829823
0.023025976 0.03348531 -0.02876603 0.04956159 -0.034741096 -0.011059124 0.021486921 0.008451452
-0.0086319195 -0.0395752 -0.01934193 -0.0066682245 -0.014030944 -0.003003218 0.011253738 -0.04764621
-0.03135182 -0.017667696 -0.010784128 -0.0024822839 -0.0065940213 0.044611745 0.025520459 0.005935109
0.022795089 -0.0062611024 -0.013157575 -0.009799813 -0.017500432 0.0072880597 -0.0014522659 -0.05439809
-0.0041950466 0.018159954 0.032922704 0.046824522 -0.026901284 -0.034933217 0.021222064 0.023989726
0.048403054 -0.031821217 -0.01575379 0.0127774635 -0.002317938 -0.017820204 0.038022764 -0.013577296
0.04400277 0.007173815 -0.0022192528 -0.01823434 -0.0073891724 -0.04290422 0.013546065 0.036103178
0.049667038 -0.043403644 -0.00789579 -0.003240027 0.0024150456 -0.033168368 -0.0010952891 -0.009522678
0.00641393 -0.011331825 0.028028293 -0.023117835 -0.008321311 0.026456086 0.029278658 0.01683354
0.0019213904 0.019491762 -0.002518544 -0.012612678 -0.018238211 -0.04950429 -0.04677859 0.006703918
-0.019629482 0.011671031 -0.0039799074 0.008541306 -0.013366585 -0.051844746 -0.02563249 0.041887365
0.01921314 0.022080315 0.0068871467 -0.017719092 0.020421764 -0.04208648 0.0040697395 -0.02393242
-0.048104376 0.02967549 -0.0025419393 -0.04247767 -0.006239233 -0.004281126 -0.015599858 -0.018881166
0.009355002 0.004519235 0.006298586 -0.043711077 0.029866135 0.018221654 0.017473487 -0.021213958
-0.0330528 0.012740991 0.007974643 0.026618816 0.002625759 0.031615578 -0.004669696 0.01468924
-0.032257583 0.032026216 0.048924837 -0.012770616 -0.0029752348 0.04726581 -0.021942211 -0.008989392
-0.051003046 0.0027389894 -0.0026552575 0.040824775 -0.017617894 -0.03925852 -0.02497222 0.015845457
0.0039382833 0.0069276425 0.007589996 0.044244833 0.027326755 0.0004994893 -0.026389169 -0.0021181714
-0.015046055 -0.04490952 0.049803067 -0.01345358 -0.0046212617 0.012347506 -0.029439677 0.028764877
0.012514772 0.04157598 -0.0058954624 0.06486964 0.021662297 0.030718513 0.01073978 -0.0030495168
-0.011876898 0.0449502 -0.049952954 8.484125e-05 -0.024864165 0.022727147 0.02228621 0.057392154
0.0043801726 -0.0107776085 0.0035601612 0.0009177775 -0.0023642685 -0.020715518 0.019207219 -0.022577813
-0.008353684 -0.056233715 0.004485949 0.017937068 0.026409812 0.03418825 -0.023672434 0.010256134
-0.0010768293 0.006299495 -0.046946984 0.035561867 -0.02773731 0.014362358 0.04699779 0.0053741974
-0.011379218 -0.0011351065 -0.037023924 0.029455356 0.028499851 0.012973018 0.042148486 -0.036424443
-0.027849657 0.000993319 -0.017555898 -0.006247698 -0.033375394 0.0055434867 -0.005373887 -0.0083860615
0.0065459097 0.020858482 -0.0277357 -0.021927422 -0.009077776 0.035788443 -0.008466258 -0.005184924
0.014495439 0.012136228 0.011424225 0.014185293 -0.010594451 0.050449695 -0.00027705915 -0.034343142
0.0429144 0.014106797 0.05385463 0.05809993 -0.00782945 -0.047565643 0.01433099 0.064065516
