tree_depth/gpt2/layer_7.pt (torch, 117980 bytes, 1 tensors)

weight f4 [38, 768]
000000 56 a4 01 bd 01 45 96 bc 41 b3 a9 3c 26 55 3b 3c
       -0.031650864 -0.01834345 0.020715358 0.011433875
000010 4b de 25 3a e6 9a 32 ba 15 f3 29 3c 16 70 29 bd
       0.0006327375 -0.0006813243 0.010372897 -0.04136666
000020 cf 9f 19 3d e9 04 0e bd 30 fb 0d bd 4b 1a ba 3c
       0.03750592 -0.03467265 -0.03466338 0.022717616
000030 ff ef ae 3c 04 d7 2f bd b5 c5 8e 3c 4d 45 72 bc
       0.021354673 -0.042929664 0.017428258 -0.01478703
000040 f7 8d ca 3c 64 cb 35 bc f4 86 8b ba f4 59 32 3d
       0.024725897 -0.011095855 -0.0010645078 0.043542817
000050 1e ad ab bc cc d5 94 bc ca 75 d4 3c e4 22 fc 3a
       -0.020956572 -0.018168353 0.025935072 0.0019236472
000060 db 14 19 3d 6d 4c 28 3b 3f 27 c9 bc 79 47 18 bc
       0.037373405 0.002568032 -0.024554847 -0.009294384
000070 0c 28 6b bc 8f b5 82 bc f3 5c 1c 3c 56 95 c5 bc
       -0.01435281 -0.015955715 0.009543645 -0.02411906
000080 89 9c 27 bc 78 58 6f 3c 64 ea 42 bd 46 04 67 3c
       -0.010230192 0.014608495 -0.047586814 0.01410014
000090 4f d6 1e 3c ce fa 32 bd 15 36 d2 3c 7e ca 8c 3c
       0.00969465 -0.043696217 0.025660554 0.0171864
0000a0 2f 0c 99 3c 6b e9 cc bc 5d 02 b4 bc 9f d5 26 3c
       0.018682567 -0.025013646 -0.021973783 0.010182767
0000b0 6f de 4a bc 39 d0 ee 3c 77 0c e1 3c dc 45 a6 3c
       -0.012382134 0.029152023 0.027471764 0.020296983
0000c0 bd f7 13 3d 52 d7 91 bc a6 8e 2e bc e8 a1 cd bc
       0.036124934 -0.017802868 -0.010654127 -0.025101617
0000d0 e8 a9 32 bd 09 4a db bc 14 9d f4 3c 85 0e 16 3b
       -0.043619066 -0.026768701 0.029860057 0.0022896838
0000e0 ee e0 93 bc 96 6e 2f 3c 49 b1 88 bb fb 23 3c 3c
       -0.01805159 0.010707518 -0.0041715247 0.011483188
0000f0 00 ad 44 3c c3 56 04 bd a8 4f 38 3d bb 33 c0 bc
       0.012004137 -0.032309305 0.04499784 -0.023462167
000100 cb 8b f8 bb e8 97 bf bc a8 7c 9c bc ee 38 06 3d
       -0.007585024 -0.023387864 -0.01910241 0.032769136
000110 e8 e5 47 ba c1 4f fa bc f6 78 16 bc 40 d3 d0 bc
       -0.0007625506 -0.030555608 -0.009184113 -0.025491357
000120 c3 9d e5 3c bd e3 f7 3c a5 11 29 bd 91 de 20 3b
       0.028029328 0.030259961 -0.041276593 0.0024546722
000130 ec f7 dc 3c 7e 2e 39 bd e1 24 6f bb 4e 8d 03 bc
       0.026973687 -0.045210354 -0.0036490487 -0.008029295
000140 0d c9 38 3c 73 0d ec 3c 6a e1 af 3c cd c9 d1 3c
       0.011278403 0.028815007 0.02146979 0.025608921
000150 9e 75 39 3a 80 c3 ab bc f4 a3 02 3c 24 fe 32 3c
       0.0007074716 -0.020967245 0.00797366 0.01092485
000160 94 9b 2e bc 4a 6a 42 3c d0 5f ba 3b e0 a8 12 3c
       -0.01065721 0.011866162 0.0056876913 0.008951396
000170 39 2a 99 3a ac 65 aa 3b 00 b4 d3 3c c6 77 2f 3d
       0.0011685557 0.0052001085 0.025842667 0.042838834
000180 5d fe 4c bc ef 84 4b bc 4b 29 93 3c 5b 01 fd bc
       -0.012511817 -0.012421831 0.017964026 -0.030884435
000190 54 13 67 bc e2 fa 7b bb 52 ed a0 bc 18 6a a1 3c
       -0.014103729 -0.0038449098 -0.019644413 0.01970391
0001a0 c3 4f 27 bc 37 47 cd bc f3 1d b9 3c 11 09 a3 3c
       -0.010211888 -0.025058372 0.022597289 0.019901784
0001b0 a0 c6 91 bc ea 71 b6 ba af d1 28 bc b8 2a a7 bc
       -0.017794907 -0.0013919447 -0.010303899 -0.020406112
0001c0 71 0f 0a 3d 6b cf 02 3c 48 8f 45 3c 9c 99 e2 bc
       0.033706132 0.007984023 0.012058087 -0.027661137
0001d0 6b 9c 70 bc 38 8d d3 3b a0 c1 f2 bc 76 19 40 3d
       -0.01468573 0.0064560436 -0.029633343 0.04689928
0001e0 6c 3f 84 3c c4 cd ea bc fe 8e 84 bc 7d 49 86 3b
       0.016143523 -0.02866257 -0.016181465 0.004098116
0001f0 f6 a7 7b bb 56 2d 87 bb ac eb 7d 3c 3d 6c ff bb
       -0.0038399673 -0.0041252775 0.015498083 -0.0077948854
000200 e5 35 b9 3c 20 fb 98 bc 92 a4 a4 3b 36 9d b3 bc
       0.022608707 -0.018674433 0.005024501 -0.02192555
000210 9d 2c 0d 3d ca 95 ea bc 7b 1d 44 bd 39 f7 ad 3c
       0.034466375 -0.028635878 -0.047879677 0.021236049
000220 7d aa cb bc 9e de 38 3d 1b 6c ab bc 0f 30 24 3d
       -0.024861569 0.04513418 -0.020925572 0.040084895
000230 8b 3a b8 3c 07 27 0a bc 9f 60 1f bd e3 46 cb ba
       0.022488853 -0.008432156 -0.038910504 -0.0015508797
000240 e8 ca 94 bc fc 81 0e 3d 87 16 97 bc 92 1b 86 3c
       -0.01816316 0.03479193 -0.018443359 0.016370568
000250 cc d4 cb bc 53 4d 20 3b 90 a3 58 3c 8d ea 5f 3c
       -0.024881743 0.0024460151 0.01322259 0.013666761
000260 37 66 9b bc 4f 90 59 bc ff 1b 9e bc f1 90 37 3c
       -0.018969638 -0.013279035 -0.019300459 0.01120399
000270 40 bd cb bb d6 92 d1 bc c5 31 a5 3c ee 4e 7b 3c
       -0.0062176287 -0.025582712 0.020165334 0.0153386425
000280 b1 ae 0f bd 08 81 de bb 07 06 b8 bc d4 e0 06 3c
       -0.035078708 -0.006790284 -0.022463812 0.008232314
000290 e0 ea 3c 3d 87 73 92 3c 12 e3 2d bc 42 c8 6d 3c
       0.04612243 0.017877353 -0.01061322 0.014513077
0002a0 86 fc 5c 3c 95 5e 98 3c 89 14 1a 3d 25 37 88 bc
       0.013487941 0.018599788 0.03761724 -0.016627857
0002b0 40 46 77 bb d3 30 02 bd d2 a8 05 3c 05 1a 91 bc
       -0.0037731081 -0.031784844 0.008157926 -0.017712602
0002c0 26 13 a5 bc 66 d5 5b bc 84 b7 32 bd fb ab 41 bc
       -0.020150732 -0.013417577 -0.043632045 -0.0118207885
0002d0 29 d7 3e 3d 5b 7f b2 bc 38 b5 5d bc 92 a5 24 3c
       0.04659191 -0.021789243 -0.013531975 0.010049241
0002e0 f4 a9 fc 3c 09 b7 4a 3c d3 aa 79 3b 56 ba c4 3c
       0.030842759 0.012372741 0.0038096204 0.024014633
0002f0 f5 52 80 38 fe 65 ee 3b c6 ee 3c bd fb 0a 42 3d
       6.1189676e-05 0.007275342 -0.04612615 0.047373753
000300 40 60 cd 3c 29 2e 5e 3b e9 ef 01 3d 2a 58 50 3c
       0.02507031 0.0033902025 0.031722937 0.012716332
000310 6f 3a e7 bb 78 06 ca 3c bc d9 a0 bb dd 7c 87 3c
       -0.0070565264 0.024661288 -0.0049087685 0.016539032
000320 16 3a 38 3b 89 9b 45 3a 16 e2 a8 bc c3 db d8 3c
       0.0028110794 0.000753813 -0.020615619 0.026471978
000330 c3 97 e4 3a 59 c1 b0 bc 69 81 9b bc 03 8a c5 3a
       0.0017440248 -0.02157657 -0.018982606 0.0015071038
000340 85 c5 c4 3c 48 46 e1 bc 50 43 ec bc 8b da 94 3c
       0.024019966 -0.027499333 -0.02884069 0.018170616
000350 ff e7 49 bc a2 70 49 3d 14 8f 4b ba 88 1a d6 3c
       -0.012323379 0.04917968 -0.0007765156 0.026135698
000360 cc f9 98 ba 71 99 25 3d f7 32 12 3d da 83 c6 3b
       -0.0011671125 0.040429536 0.035693135 0.0060581984
000370 f4 1f 9f 3c 7a 66 a2 bc 40 38 81 bc ec 91 70 ba
       0.019424416 -0.019824255 -0.015773892 -0.00091770175
000380 4e 69 85 3c 0d 96 43 bc c2 19 c8 3a 45 36 04 bd
       0.016285565 -0.01193763 0.0015266465 -0.032278318
000390 d7 9c 8a bc 53 97 96 bc ad 86 09 bd 27 8a b6 bc
       -0.01692049 -0.018382704 -0.033575702 -0.022282673
0003a0 cd 53 b4 bc c9 92 a8 bb e4 87 63 bc 86 63 a7 3b
       -0.022012616 -0.0051444513 -0.013887379 0.0051082997
0003b0 3b 45 86 bc 92 25 93 3c 88 74 91 bc 5f 9f a3 bc
       -0.016390434 0.01796225 -0.017755762 -0.019973455
0003c0 44 6a 3c 3c 95 42 03 3d ce 90 9f 39 67 d3 1e bd
       0.011499945 0.03204592 0.0003043473 -0.038775828
0003d0 2b 4c fa bc 9f e3 d5 3a 30 1b 20 3d c7 9b 3f b9
       -0.030553898 0.0016318447 0.039088428 -0.00018273211
0003e0 e2 fa 12 3d 4e 5a d1 bc e7 ae 12 3d 1f 00 b6 3c
       0.03588379 -0.025555756 0.03581133 0.022216855
0003f0 24 73 70 ba 3b bb ac bc 22 fc 74 bc 19 d8 92 3b
       -0.0009172431 -0.021085372 -0.014952691 0.0044813273
