tree_depth/gpt2/layer_2.pt (torch, 117980 bytes, 1 tensors)

weight f4 [38, 768]
000000 11 dc 9f bb 44 7b 25 bd db 1f 03 3d 3b 82 4f bc
       -0.004878529 -0.04040076 0.0320128 -0.012665327
000010 01 78 eb 3c fa 4e a1 3c 73 a5 b9 bc 9a 2d 81 bb
       0.028743746 0.01969098 -0.0226619 -0.0039422037
000020 83 b4 2a bd 0d d1 28 bd e6 80 a7 3c 04 62 d6 3b
       -0.041676056 -0.04121499 0.020447206 0.006542446
000030 0b cd f1 bb 1f 84 2b bd c2 71 e5 3c a1 83 fb bc
       -0.0073791794 -0.041874047 0.028008346 -0.030702414
000040 74 e1 01 3d 17 0e ee 3c 87 1f 43 bd b5 10 11 3d
       0.03170915 0.029059453 -0.04763749 0.035416324
000050 68 ce 47 bc 4e e3 89 3c 17 ec c0 bb 3b c7 10 3c
       -0.012195207 0.01683202 -0.005887519 0.008836563
000060 21 62 e4 3c 4a 24 71 bc b1 51 18 bd e8 86 f4 3c
       0.027878823 -0.014718125 -0.037187282 0.029849485
000070 2d d6 16 bd a9 22 0b bc 49 1a 38 3d bf 3c f7 bc
       -0.036825348 -0.00849215 0.044946942 -0.030180333
000080 0f 39 a8 3c fb e5 25 3c c2 39 51 3c d7 3b 49 bd
       0.02053502 0.010125632 0.012770118 -0.049129333
000090 64 38 b7 bc 44 87 0a 3b 1f 57 61 bb 51 05 90 bc
       -0.022365756 0.0021137754 -0.0034384204 -0.01758066
0000a0 43 c0 22 bd 64 62 04 3c ad 7a b3 bc d3 af 1e 3b
       -0.039734136 0.008080099 -0.021909082 0.0024213686
0000b0 69 c8 32 3d a3 18 1a 3d 65 c8 ea 3b 4c ac 0b bc
       0.043648157 0.03762115 0.007165002 -0.0085249655
0000c0 ce f3 1c bc 33 24 31 3c a7 e0 49 bc 2d a1 23 bd
       -0.009579612 0.010811853 -0.012321628 -0.03994863
0000d0 c0 d9 02 3d c7 7f 23 bd 7f 0e 4b bc 9d bc ef bb
       0.031945944 -0.03991678 -0.012393593 -0.0073161856
0000e0 76 30 ee b8 05 1f 3a 3c e0 17 86 3c e5 af e2 3c
       -0.00011357751 0.011359935 0.016368806 0.027671764
0000f0 3d c6 90 bb 77 65 25 bd 7f 3f 43 3d 80 42 c1 3c
       -0.004418163 -0.040379968 0.047667976 0.02359128
000100 3f 65 d9 3b c8 a0 44 3c 7c 2e 46 3d 9a 16 c1 bc
       0.006634384 0.012001224 0.048384175 -0.023570348
000110 ac a3 cc 3c 69 af 34 bc d6 bf f9 3b b2 9c 50 3c
       0.024980389 -0.011028149 0.0076217456 0.012732672
000120 ea 28 26 3c f6 0f 34 3c 40 ea 0d bc df bb 60 bc
       0.010141591 0.0109901335 -0.008661807 -0.013716667
000130 66 82 2c 3c 79 9b ee bc 43 15 f4 3b 16 dd f8 3c
       0.010529136 -0.02912687 0.0074488237 0.03037886
000140 ac d9 bd bb 18 16 28 bc d0 b7 46 3c 30 20 38 3c
       -0.005793771 -0.010259174 0.012128785 0.011238143
000150 c9 5d b4 3c 56 36 3f bc 6b 3a 85 3c a4 54 0b bc
       0.022017376 -0.01167067 0.016263207 -0.008504067
000160 6d 54 c9 3b 95 f4 b9 bc cb 30 a2 3c c3 bc f1 3b
       0.0061440975 -0.022699634 0.019798657 0.0073772385
000170 32 4c 14 3d 25 70 5e bb a6 f1 93 bc 5f 4d 32 bc
       0.036205478 -0.0033941355 -0.018059563 -0.0108827045
000180 94 f7 2c 3c 14 13 33 3d 0b b7 86 3c fa 81 32 bc
       0.010557074 0.043719366 0.016444704 -0.010895247
000190 3d 16 3a 3d 4e 02 2b bc e8 9f 34 bc d8 7b 6c 3c
       0.045431364 -0.010437561 -0.011024453 0.0144338235
0001a0 93 c8 9b 3c 19 a3 01 bc 0d 75 fa bc c2 fc 02 3d
       0.01901654 -0.007912421 -0.030573392 0.03197933
0001b0 fa 4c a2 bb 50 23 89 3c ff 98 ad bc c2 03 0d 3d
       -0.004953024 0.016740471 -0.021191118 0.03442741
0001c0 8b 68 1a bb 02 d3 02 3d 49 0e ba bc 7a 2d 0d 3c
       -0.0023560848 0.031939514 -0.02271189 0.0086167995
0001d0 ac a8 cb 3b ae 37 6a bd 85 cc 53 bd e4 9c 60 bc
       0.0062151756 -0.057182007 -0.051708717 -0.013709281
0001e0 7f ca 12 bd 45 28 16 ba 29 03 f6 3a 74 27 b6 bc
       -0.035837647 -0.00057280465 0.0018769252 -0.02223561
0001f0 76 6e 89 3a f3 d5 ea 3c 7e 6a 08 3d f0 d5 a1 bc
       0.001048519 0.028666472 0.033304684 -0.019755334
000200 cb e6 91 3c 4a f3 0a bd 41 12 36 3d 3c 9e 53 3d
       0.017810246 -0.033923425 0.044451002 0.051664576
000210 1c 2a fd 3c 35 c1 3e bd 5f 10 a3 bc b7 01 ea ba
       0.030903868 -0.046570975 -0.019905267 -0.0017853294
000220 3e 7e 53 3c 3c b4 3f 3d 4c b0 66 bc 3b e1 50 3d
       0.012908516 0.046802744 -0.014080118 0.050996047
000230 35 dd 6a bd cf 16 75 bc 65 a9 89 bc 5a 56 de 3c
       -0.057339866 -0.014959051 -0.016804406 0.027140785
000240 4f 03 1a bd 87 67 cd 3c 6c af 26 3b ab 61 b6 bc
       -0.03760081 0.02507378 0.002543415 -0.022263369
000250 4d 5e bc bb a6 97 3b 3d 31 1d 13 bc f0 b2 41 3c
       -0.005748546 0.04579892 -0.008979128 0.011822447
000260 57 ba cf bc 45 2a 38 3c a5 ec 27 bc be fe 82 3c
       -0.025357408 0.011240547 -0.010249292 0.015990611
000270 48 c8 37 bd 8b 63 4f bd 4c 49 28 bc 54 ef 76 bb
       -0.044868737 -0.05063204 -0.010271382 -0.0037679272
000280 93 75 1c bd 0a e4 cf bb a4 68 b7 3c 14 d1 d5 3b
       -0.038198065 -0.006344323 0.022388764 0.006525168
000290 1f dc 14 3c 7e 2f f6 3c b1 4f c4 bc d2 54 60 3d
       0.009085684 0.030051943 -0.023963781 0.05476839
0002a0 8a 5d 0a bd 36 0f de 3b a3 95 06 3d 0f 43 51 3c
       -0.033780612 0.0067767156 0.03285755 0.012772336
0002b0 36 b4 84 bb 15 9e 2d bc 73 62 29 3c 13 40 28 3c
       -0.004049803 -0.010596772 0.0103384135 0.010269183
0002c0 b3 c0 4f 3d d8 f8 3e bd 83 79 c7 bc 7c b9 57 3c
       0.05072088 -0.046624035 -0.024349933 0.0131667815
0002d0 6d 8f 44 3d 05 24 7d bc 55 4c 17 3d 12 97 1e bc
       0.047988344 -0.015450482 0.03693803 -0.009679573
0002e0 a2 d7 52 3d 9e b7 2d 3d 68 01 b7 3c 2a c1 68 3b
       0.051475175 0.04241144 0.022339538 0.0035515525
0002f0 2f 2f c1 bc 5e 62 b7 3b 85 85 07 3c 77 27 cf 3c
       -0.02358207 0.005596443 0.00827158 0.025287373
000300 74 dd a2 3b 1d ef d6 3b d7 8c 1e 3c c0 c4 c2 3c
       0.004970247 0.0065592662 0.0096771335 0.023775458
000310 d6 8b 3d 3d 14 f0 34 bb 2e c7 31 3b 94 ec f0 bc
       0.046275936 -0.0027608918 0.0027126777 -0.029409684
000320 f0 73 95 bc 0b dc 03 bd aa a5 bb bb e5 c6 2a 3d
       -0.01824376 -0.03219227 -0.005726536 0.041693587
000330 44 db 4a bb d5 82 0a 3d 40 4d 5d bb ff b1 d2 bc
       -0.0030953446 0.033816177 -0.0033767968 -0.02571964
000340 67 2b 06 bd da 9d 09 bd 2c e3 03 bc 72 6b 80 bb
       -0.032756235 -0.033597805 -0.008049767 -0.0039190585
000350 d1 37 87 3b 58 fa 1b bd 19 f1 61 bb e9 c8 2a 3d
       0.004126527 -0.038080543 -0.003447598 0.04169551
000360 92 5d c4 3c 41 dd 38 bc 6c e3 89 3c 1f 01 b9 b9
       0.023970399 -0.01128322 0.016832076 -0.00035286785
000370 f4 b7 09 bc 1a 8a bf 3c 43 33 16 3d 54 86 0f bc
       -0.008405674 0.023381282 0.03666998 -0.008760054
000380 7c c6 07 bd dd a4 09 3d a5 27 59 bc d6 37 28 bc
       -0.033148274 0.03360449 -0.013254081 -0.010267219
000390 3d d4 c9 bc ef 37 56 3c 47 73 cb bc 7e e7 6c 3c
       -0.024637336 0.013074859 -0.024835242 0.014459489
0003a0 4c 30 24 3c 6e 70 c6 bc c6 37 9d 3c d9 48 15 3c
       0.0100212805 -0.024223533 0.019191634 0.0091116065
0003b0 6f 52 b3 bc fd 62 16 bc 2d 4e 54 bc 4f 24 20 bc
       -0.021889893 -0.009178874 -0.012958092 -0.009774282
0003c0 e2 b3 59 3d a4 b7 d9 3c 8a d3 79 bc ce f2 3a bd
       0.053150065 0.026576824 -0.015248189 -0.045641713
0003d0 94 2b 3a bc 5a 2b 9d bc 3b d9 38 3b 08 11 7b 3c
       -0.011362929 -0.01918571 0.0028205651 0.015323885
0003e0 45 b9 de 3c 31 fd 1b bd b4 02 e4 3b d5 2e 24 3d
       0.027187953 -0.03808326 0.00695833 0.040083725
0003f0 15 eb 5f bd a5 97 88 3c 7b 81 77 bc 3a 92 4f bb
       -0.05466755 0.016673872 -0.015106554 -0.0031672851
