head_word/EleutherAI_pythia-160m/layer_11.pt (torch, 787681 bytes, 1 tensors)

weight f4 [256, 768]
0	0xbc231576	-0.009953847
1	0xbc899389	-0.016793983
2	0xbd8a2de7	-0.067470364
3	0xbcb703d2	-0.022340689
4	0x3b1b7e2d	0.002372633
5	0xbcdb99e0	-0.026806772
6	0xbca97d72	-0.0206897
7	0x3c91a3e2	0.01777834
8	0xbc17659c	-0.009240534
9	0x3d27611c	0.040864095
10	0x3c0c4b75	0.008562912
11	0x3cadc2a8	0.021210983
12	0x3c81c544	0.015841134
13	0x3c8517bb	0.016246667
14	0xbbbf5cbc	-0.005839912
15	0x3d30f941	0.043206457
16	0x3cd688f0	0.026188344
17	0xbbcf7f7e	-0.006332337
18	0xbd81ccb3	-0.063378714
19	0x3aa13b41	0.0012300984
20	0xbd246b37	-0.04014131
21	0x3aaa7c2f	0.001300698
22	0xbd370477	-0.044681992
23	0x3ad92828	0.0016567754
24	0xbce9f4c1	-0.02855909
25	0xbcb4fe2e	-0.022093859
26	0x3ce32059	0.027725386
27	0x3c3bbd82	0.011458756
28	0x3b765aa9	0.0037590659
29	0x3c8347b7	0.016025407
30	0xbd1c0db2	-0.038099
31	0xbb6d9fd6	-0.00362586
32	0x3cac3a96	0.02102403
33	0x3d16c397	0.036807623
34	0x3c99b634	0.018763639
35	0xbd1817a8	-0.037131935
36	0xbbc98d07	-0.006150845
37	0x3af94789	0.0019018512
38	0x3d624326	0.05523982
39	0xbb890107	-0.0041810307
40	0x3cb88372	0.022523616
41	0x3cf950c3	0.030434018
42	0xbcc8cca9	-0.024511652
43	0xbcc78264	-0.024354167
44	0x3bdda9b8	0.006764617
45	0xbc5e73da	-0.013577426
46	0xbb99f5fd	-0.0046985135
47	0xbb87693b	-0.0041324175
48	0xbcf445f7	-0.029818518
49	0xbd1e6760	-0.038672805
50	0x3c20f425	0.009823834
51	0xbc40c11a	-0.011764789
52	0x3c9cf58d	0.019160056
53	0xbb1eb6aa	-0.0024217763
54	0x3ce9e608	0.02855207
55	0x3d29fbe2	0.04149998
56	0x3c33aaf8	0.010966055
57	0x3c9b275a	0.018939663
58	0xbc9ed00a	-0.01938631
59	0x3b40a25b	0.0029393646
60	0xbc391337	-0.011296085
61	0x3bb0cb05	0.0053952956
62	0x3d4bc3d2	0.049747296
63	0x3ca9036b	0.020631513
64	0xbc7d6110	-0.015465036
65	0x3d0287bd	0.03186773
66	0x3c0e9089	0.008701452
67	0x3ce6334c	0.028100632
68	0x3a97db00	0.0011585653
69	0x3ca416ea	0.020030458
70	0xba44e9aa	-0.00075116253
71	0xbd4aacc6	-0.049481176
72	0xbd0d6a3d	-0.034525145
73	0xbd103715	-0.03520878
74	0xbcd12519	-0.025530385
75	0xbd0bd8fd	-0.034142483
76	0x3c5367e6	0.012903189
77	0xbc4dd1ab	-0.012562196
78	0x3cb23c89	0.021757381
79	0x3a58abef	0.0008265366
80	0xbbbab29e	-0.0056975624
81	0xbce9d832	-0.028545473
82	0xbd2a95f8	-0.041646928
83	0xbc29da27	-0.010366953
84	0x3d862335	0.06549684
85	0xbd034093	-0.032044005
86	0x3d0c1629	0.03420082
87	0xbd3e383d	-0.04644035
88	0xbcdd0ff7	-0.026985152
89	0x3c17ea46	0.009272164
90	0x3d939fb8	0.07208198
91	0x3c07dc13	0.008292216
92	0x3d1a46f7	0.037665334
93	0xbc85c3b8	-0.016328678
94	0xbb6c49a1	-0.0036054628
95	0xbc5632aa	-0.013073603
96	0x3d6d04ec	0.057866022
97	0x3ca2823d	0.019837493
98	0x3c716251	0.014732913
99	0xbcc113df	-0.023569046
100	0x3c9f13bc	0.01941859
101	0x3ba095d6	0.0049006743
102	0xbc2d8507	-0.010590798
103	0x3c9649ce	0.01834574
104	0x3cf15f11	0.029464277
105	0xbd34feb3	-0.044188213
106	0x3babeab6	0.0052464856
107	0x3cc06a4a	0.023488183
108	0x3c49400a	0.0122833345
109	0xbb98a9dd	-0.004658921
110	0xbc836a1c	-0.016041808
111	0xbbc81b4a	-0.0061067687
112	0xbd2bfdb4	-0.041989997
113	0x3cb708cf	0.022343067
114	0x3c21b33b	0.009869392
115	0x3c8d8291	0.017274173
116	0x3d091d02	0.03347493
117	0xbcb780a5	-0.02240021
118	0xbcd977d7	-0.026546402
119	0xbc9fa83e	-0.019489404
120	0xbc8c9272	-0.017159674
121	0xba9c3a2f	-0.0011919196
122	0xba604953	-0.0008555848
123	0xbc99b429	-0.018762665
124	0x3ca1444d	0.019685889
125	0x3d1452de	0.03621184
126	0x3d08b906	0.033379577
127	0x3c87023b	0.016480556
128	0x3cc481d5	0.02398769
129	0xbc6213d8	-0.013798676
130	0xbc91ed31	-0.017813297
131	0x3d166457	0.036716785
132	0x3b1cef8d	0.0023946494
133	0xbcfc8e34	-0.030829526
134	0xbcd98de3	-0.026556915
135	0xbc412df2	-0.011790739
136	0xbc13f8eb	-0.009031515
137	0xbcff8b01	-0.031194212
138	0x3c87b056	0.016563576
139	0xbcdf1e42	-0.027236108
140	0xbb47d7dd	-0.0030493655
141	0x3c9a44e9	0.018831687
142	0xbb2bc24d	-0.0026208342
143	0xbd82290a	-0.06355484
144	0x3c264fc2	0.010150852
145	0x3c0269b5	0.007959773
146	0x3c5181da	0.012787307
147	0xbce67dcf	-0.028136162
148	0xbc814f9d	-0.015785033
149	0x3b5a2088	0.003328355
150	0x3cb3d04e	0.021949913
151	0x3ab344f6	0.0013677168
152	0x3c9c4bb7	0.019079072
153	0xbb3215b6	-0.0027173585
154	0xbd589743	-0.05287863
155	0xbbb30076	-0.0054627014
156	0xbd365f5e	-0.044524543
157	0xbc974ae2	-0.018468324
158	0xbcd1e12d	-0.025620067
159	0xbd6f0a4d	-0.058359433
160	0x3c954057	0.018219156
161	0xbd1eff88	-0.038817912
162	0xbb3a7fd7	-0.0028457546
163	0x3c680144	0.014160458
164	0xbc720a76	-0.014773002
165	0xbc9aeff5	-0.018913249
166	0x3bb9378c	0.0056523737
167	0x3cf32bc3	0.029683953
168	0xbd27563d	-0.040853728
169	0xbaedb25d	-0.0018134821
170	0xbcee07a1	-0.029056372
171	0x3d7fe3c0	0.06247306
172	0x3c4d9d9b	0.012549783
173	0xbd293f6c	-0.04132025
174	0xbd2c02b0	-0.04199475
175	0xbcd00a3b	-0.025395503
176	0x3d7c7981	0.061639313
177	0xbc40ff2f	-0.0117795905
178	0xbb77f44b	-0.003783482
179	0xbbd7cee3	-0.006585942
180	0xbbad1f05	-0.005283239
181	0x3cfc4021	0.030792298
182	0xbca9dbdf	-0.020734726
183	0xbd3ea639	-0.04654524
184	0x3ca93596	0.020655435
185	0x3bee48b5	0.007271851
186	0xbd256e75	-0.040388543
187	0x3d8df105	0.069307365
188	0x3cf7cca2	0.030248944
189	0x3c637a95	0.013884206
190	0x3d71cdc2	0.059034117
191	0x3c36ba7c	0.01115286
192	0x3c09a022	0.008399995
193	0x3bcc5548	0.0062357523
194	0x3c08b27b	0.008343334
195	0xbc571f90	-0.013130084
196	0xbcc12c49	-0.023580687
197	0x3cd5a3ea	0.026079137
198	0x3c3b1ca8	0.011420406
199	0x3c0a3579	0.0084356
200	0x3b0ab1e8	0.002116317
201	0xbd404cff	-0.04694843
202	0xbc7b854a	-0.015351603
203	0x3ccf340c	0.025293373
204	0xbd265480	-0.04060793
205	0x3d38fc47	0.045162465
206	0xbbea244d	-0.0071454407
207	0x3c83ae72	0.016074393
208	0xbd207fa5	-0.03918423
209	0xbba9a163	-0.0051767095
210	0xbc0a524f	-0.008442475
211	0x3b8b5f42	0.004253299
212	0xbc044acb	-0.008074473
213	0xba20fdfc	-0.0006141362
214	0xbd67d732	-0.05660171
215	0xbb6acaa8	-0.003582636
216	0xbcdc9d72	-0.026930545
217	0xbc89dbc6	-0.016828429
218	0x3c49e226	0.012321984
219	0x3cbe8c54	0.023260273
220	0xbc904e43	-0.017615443
221	0x3c514566	0.0127728935
222	0x3c161e76	0.009162536
223	0x3d89da83	0.06731131
224	0xbc3937fe	-0.0113048535
225	0xbbf6ed79	-0.007535633
226	0x3d0d4bfd	0.034496296
227	0x3cfd4c91	0.030920299
228	0x3cf2d39a	0.029641915
229	0x3d495b7a	0.049159504
230	0xba74cc3d	-0.0009338295
231	0x3a280cc5	0.0006410594
232	0xbc3ed58a	-0.011647591
233	0x3a570dea	0.00082036725
234	0xbd17d4d8	-0.037068218
235	0xbd7a33ec	-0.061084673
236	0x3bcf5288	0.006326977
237	0xbd292e36	-0.041303836
238	0x3c02c9cf	0.007982685
239	0x3c9e1839	0.01929866
240	0xbbeb4db8	-0.0071808957
241	0x3c81c58f	0.015841274
242	0x3ce8d513	0.028421914
243	0xbc6cc9bb	-0.014452393
244	0x3d235136	0.03987237
245	0x3b8b393a	0.0042487653
246	0x3ca370d2	0.019951258
247	0xbd76954d	-0.060200978
248	0x3d3b4cf7	0.045727696
249	0x3d6a165f	0.05715024
250	0x3b96df2e	0.004604242
251	0x3cfb5db7	0.030684335
252	0xbb29f4e8	-0.002593333
253	0x3d02debe	0.031950705
254	0xbc587d11	-0.013213412
255	0x3c99eb4e	0.01878896
