head_word/EleutherAI_pythia-160m/layer_0.pt (torch, 787676 bytes, 1 tensors)

weight f4 [256, 768]
0	0x3de3762f	0.11106526
1	0xbdb849d7	-0.08998459
2	0xbd531644	-0.051534906
3	0x3dae9c58	0.08525914
4	0xbdd76dd6	-0.105189964
5	0x3b709ed5	0.0036715765
6	0x3d872ad1	0.065999635
7	0x3d7398c4	0.05947186
8	0x3dcce7f4	0.10005179
9	0x3dd024bb	0.10163256
10	0x3dac0e97	0.0840122
11	0x3deb8996	0.11500852
12	0xbd2dacb3	-0.042401027
13	0xbc21f4d4	-0.009885032
14	0xbdb23d73	-0.08703127
15	0xbd0413e7	-0.032245543
16	0xbc47a793	-0.012185949
17	0x3e054b56	0.1301702
18	0xbdda4aad	-0.106587745
19	0x3c059d7f	0.008155226
20	0x3c5c06db	0.013429369
21	0xbd19823f	-0.037477728
22	0x3d11cd1b	0.035595994
23	0x3c20b5ce	0.009808971
24	0xbcc5ecfa	-0.02416085
25	0xbbab7274	-0.0052321497
26	0x3d60a15b	0.05484138
27	0x3dbbb88f	0.09166061
28	0xbdad6ed5	-0.08468405
29	0xbe3c2d29	-0.18376602
30	0x3de33a97	0.110951595
31	0xbcdfa6ea	-0.02730127
32	0xbe312bae	-0.17301819
33	0xbde67739	-0.11253209
34	0xbc9f7a3f	-0.019467471
35	0x3e23b7f1	0.15988137
36	0xbd36c090	-0.044617236
37	0xbd907afd	-0.07054708
38	0xbe0dd739	-0.13851632
39	0x3d8d2822	0.0689242
40	0xbdd46a0c	-0.10371789
41	0xbe671e11	-0.22570063
42	0xbd6a6681	-0.05722666
43	0xbc570aaa	-0.013125101
44	0x3dea2dd7	0.114345245
45	0xbcf33a47	-0.029690875
46	0x3db283f6	0.08716576
47	0x3c24bb1f	0.010054379
48	0x3c07761c	0.008267906
49	0xbd92af47	-0.07162338
50	0x3cf831ee	0.030297246
51	0xbd9465ec	-0.072460026
52	0xbd8c777b	-0.068587266
53	0xbde21854	-0.110397965
54	0xbd30f9bf	-0.043206926
55	0x3c7888ae	0.015169306
56	0xbda48a06	-0.080341384
57	0x3ce29402	0.027658466
58	0xbd3d2401	-0.046176914
59	0xbc05daa3	-0.008169803
60	0x3da5d5a1	0.08097387
61	0x3cc948c1	0.024570825
62	0x3d97e563	0.07416799
63	0xbdc3cc24	-0.09560421
64	0xbdb5c664	-0.08875731
65	0xbd26d7b3	-0.04073305
66	0x3d21e84a	0.03952817
67	0x3da2db6c	0.07952008
68	0x3d3712f3	0.044695806
69	0xbe0576b1	-0.13033558
70	0x3e2e1a1d	0.17002149
71	0xbd3aed29	-0.04563633
72	0x3c0ca05a	0.008583153
73	0xbdb4b971	-0.08824433
74	0xbd47fc78	-0.048824757
75	0xbcd7be99	-0.026336001
76	0x3dd4dc56	0.10393588
77	0xbe03f4de	-0.12886378
78	0xbe82f1b2	-0.25575024
79	0xba4dddd6	-0.00078531855
80	0x3e4a5359	0.19758357
81	0x3dff924a	0.12479074
82	0xbb92f954	-0.0044852886
83	0xbe1c89da	-0.15286961
84	0x3d3c985c	0.04604374
85	0x3cf56622	0.029955927
86	0x3e209783	0.15682797
87	0x3e045152	0.12921646
88	0xbd3118e7	-0.04323664
89	0x3dd0cc6f	0.101952426
90	0x3d386117	0.045014467
91	0xbb820351	-0.0039676805
92	0xbdcc5715	-0.09977547
93	0x3df5c17a	0.11999793
94	0xbe97604f	-0.29565665
95	0xbd264737	-0.04059526
96	0x3d6ab2d0	0.057299435
97	0xbd962706	-0.07331662
98	0xbdfcba75	-0.12340251
99	0xbe59660b	-0.21230333
100	0xbda33dae	-0.07970749
101	0xbd515b47	-0.05111244
102	0xbd719b1e	-0.058985822
103	0xbdbbe635	-0.09174768
104	0xbd89daa5	-0.06731156
105	0x3bd65f16	0.006542097
106	0xbe8d80e9	-0.27637413
107	0xbdb6fa63	-0.08934476
108	0xbd562903	-0.052285206
109	0xbcf181a3	-0.02948076
110	0xbd0084b7	-0.031376567
111	0x3dec430d	0.115362264
112	0x3e03cd3e	0.12871262
113	0xbd7ed2b0	-0.062212646
114	0x3d183ace	0.037165456
115	0x3e812f0b	0.25231203
116	0xbdac37ce	-0.084090814
117	0xbd690b80	-0.056895733
118	0x3df23996	0.1182739
119	0xbbc8276e	-0.006108216
120	0xbdb10513	-0.08643546
121	0xbcec8e42	-0.028876428
122	0xbcd21709	-0.02564575
123	0x3d4e9ecd	0.050444413
124	0xbe2f1b08	-0.17100155
125	0x3e1cb9c5	0.1530524
126	0x3de7f449	0.113258906
127	0xbd82b22d	-0.063816406
128	0xbe84841b	-0.25882038
129	0xbd9ccf8b	-0.07656773
130	0xbccb1eab	-0.024794897
131	0xbd8874c9	-0.066629
132	0xbc408ae3	-0.011751863
133	0x3da2b76d	0.07945142
134	0x3e3ae7e3	0.1825252
135	0xbd669b0d	-0.05630021
136	0x3d8ca6d3	0.06867757
137	0xbde55dbb	-0.11199518
138	0x3d07ce76	0.03315588
139	0xbdf1a6c3	-0.117993854
140	0x3e2ab399	0.16670074
141	0xbe233375	-0.15937598
142	0x3e226ea7	0.15862523
143	0x3d9157fe	0.07096861
144	0x3dfbced9	0.122953124
145	0x3d65c1f7	0.056093182
146	0x3cc093bf	0.02350795
147	0xbe16fce1	-0.14744903
148	0xbd7d8204	-0.06189157
149	0xbe0ff58b	-0.14058511
150	0x3ddabf8f	0.10681068
151	0xbd4250ba	-0.047440268
152	0x3c0aae1c	0.0084643625
153	0x3ca659c4	0.020306475
154	0xbd0f114f	-0.034928616
155	0xbcf43869	-0.029812055
156	0x3cd9be95	0.026580134
157	0x3dac5090	0.084138036
158	0x3d8db4ea	0.06919272
159	0x3d883e83	0.06652548
160	0xbd154e24	-0.036451474
161	0xbcc3c75a	-0.02389877
162	0x3d9f299c	0.07771608
163	0xbd44bf6f	-0.048034128
164	0x3d8bf4b5	0.068337835
165	0xbd3ba6f5	-0.04581352
166	0xbd9bb4a7	-0.07602816
167	0xbd8f9787	-0.070113234
168	0x3d5a98b7	0.053368296
169	0xbc488373	-0.012238371
170	0xbd75e21f	-0.0600301
171	0xbd2a7e5a	-0.041624404
172	0xbe27fee9	-0.16405834
173	0x3cbb8596	0.022890847
174	0x3db80700	0.0898571
175	0x3d5fa6ce	0.054602437
176	0x3e627514	0.22114974
177	0xbd6a1868	-0.057152182
178	0x3e0998d5	0.13437207
179	0x3d979a8d	0.07402525
180	0xbd9afdf6	-0.075679705
181	0x3dacc9f8	0.0843696
182	0xbcee96d7	-0.02912466
183	0xbdf079b8	-0.11741966
184	0xbe3173b5	-0.17329295
185	0xbd99117b	-0.07474037
186	0x3afb2b4c	0.0019162684
187	0xbdd2c4f7	-0.10291474
188	0xbdaa2738	-0.08308262
189	0x3e0cf111	0.13763835
190	0xbdfd4442	-0.12366535
191	0xbe1412e7	-0.14460336
192	0x3d904822	0.07045008
193	0x3e1a2391	0.1505263
194	0xbc8065f7	-0.01567362
195	0xbd7db608	-0.061941177
196	0x3dd7396a	0.10508998
197	0x3d68d016	0.05683907
198	0x3dbe314c	0.092867464
199	0xbd0f3874	-0.034965947
200	0xbd2c7fbb	-0.042114
201	0xbd2313aa	-0.039813675
202	0x3d9fde33	0.07806053
203	0x3d39bfa5	0.045348782
204	0xbd47aa4e	-0.0487464
205	0xbda6622a	-0.08124192
206	0xbe563824	-0.20919853
207	0xbb31b7ee	-0.0027117687
208	0xbdb31efd	-0.08746145
209	0x3d336e82	0.04380656
210	0x3dfc23da	0.12311526
211	0x3d770424	0.060306683
212	0xbc815717	-0.015788598
213	0xbd41676c	-0.04721777
214	0xbe0265d7	-0.12734161
215	0xbd13af7a	-0.03605602
216	0x3dc76f1d	0.0973799
217	0xbd5b5639	-0.053549025
218	0xbc05bb00	-0.00816226
219	0x3d93fa83	0.07225516
220	0xbdbe770d	-0.09300051
221	0xb633c430	-2.6787275e-06
222	0xbe2ab305	-0.16669853
223	0xbc1121fc	-0.0088582
224	0xbdeeb4f2	-0.11655606
225	0x3e427cd9	0.18992938
226	0x3d2c1cf1	0.04201979
227	0xbd351714	-0.044211462
228	0xbe1cb859	-0.15304698
229	0x3caaea65	0.020863721
230	0xbdbaf388	-0.09128481
231	0x3db21482	0.08695318
232	0x3d44a59c	0.0480095
233	0x3e22471a	0.15847436
234	0x3c9aeb2e	0.01891097
235	0xbd997f59	-0.07494993
236	0x3d1f299d	0.038858045
237	0xbd4c52f5	-0.0498838
238	0xbe0840ed	-0.13306017
239	0xbc2eb99c	-0.01066437
240	0xbdd9f212	-0.106418744
241	0xbe40807a	-0.1879901
242	0xbe85b1e0	-0.2611227
243	0xbd7fa44a	-0.062412538
244	0x3e026557	0.1273397
245	0x3de630f1	0.112398036
246	0x3c08c4b5	0.00834768
247	0x3d95843d	0.07300613
248	0x3d15e7e7	0.036598112
249	0x3e142151	0.14465834
250	0x3d0e8095	0.034790594
251	0xbdfa10ec	-0.12210259
252	0x3daff176	0.08590977
253	0xbdbfec8d	-0.0937129
254	0xbda8f05d	-0.08248971
255	0x3d6692fd	0.056292523
