artifacts/gpt2_probe_layer_0:v0/layer_0.pt (torch, 787676 bytes, 1 tensors)

weight f4 [256, 768]
00000000: 0341 0b3d 47d4 7abd 9095 22bd 6dfe 6d3d
00000010: 657c 08bc 2284 99bd 84d8 30bd c140 673d
00000020: 22be 6bbd 0d0f d5bc ae84 69bd 563c 3e3d
00000030: 1f90 b7bc c55b c6bc 9bf3 753c 3574 37bd
00000040: 38fd 403d c75c 9b3c 1c9b 483d 643e b83c
00000050: 17cd 083d 0f09 26bc 4379 583d 840e 4d3a
00000060: 9837 a1bd 6bbb ebbb 2dd4 71bd 5b22 bb3c
00000070: 4fa2 83bb 228b 36bd 72ec 2c3d 53b8 60bd
00000080: 834f d13c e659 023d 8164 f3bc e77e ae3c
00000090: c356 f13c 735b 85bb 0de6 bdbd 072c 113d
000000a0: ff63 04bc 4538 12bc a28e d93c 0206 c83c
000000b0: bdc8 423d cb40 94bd 43f3 45bd deb0 613c
000000c0: c767 6e3d f774 863c 3730 8c3c 59e3 d0bc
000000d0: 5af5 4dbd 3fea 9c3c c54d df3b e51b c83b
000000e0: 00b4 cf3c 52f9 c83c 64bb 143d 5365 21bd
000000f0: c97a 3fbc f86c 09bc 704a abbc cd9d fb3c
00000100: a9fc 8a3c 3628 9dbc d864 4a3b 3f6c db3b
00000110: 4d43 233c 766f 313c e58c b33d e5d2 1d3d
00000120: 023d b33b 671a d1bc fc9d edbc fbb9 d3bc
00000130: 1338 0a3d 8f38 3c3d e21b a43d e888 35bd
00000140: c364 863d 8f85 173c 2c4e 9fbd 56f9 01bd
00000150: 46f6 ebbb 956f 283d 2583 c83c 5750 1abd
00000160: d482 adbd 8ec9 063d 221a 0c3c 4af3 25be
00000170: cb0f 3e3c 7c37 56bd c6a4 74bd 592c 2abd
00000180: 39e0 153d ccf3 303d 75cb c13c d11f 77bc
00000190: 08dc cb3c c6c2 dc3b df27 c53a 41dc a1bd
000001a0: 98ca d13c 263a d5bc a88f 7cbd 46a0 57bd
000001b0: 66bc 67bd d406 ecbd 4758 623d e034 6f3d
000001c0: 902f 36bd 186e 263c 08da 2dbc a3ed 54bd
000001d0: 74cf 1f3a 50c1 64bd eb74 1c3b f8c3 8bbc
000001e0: a937 46bc a602 0dbd 2cdb 593c 97c3 57bd
000001f0: fbd3 38bc a6af d0bc 242b 013d 8211 a13b
00000200: 52a0 3a3c 3181 473d e7a6 f4bc e946 f0bd
00000210: 7454 e8bc e216 603d 3bde 42bd 642d cbbd
00000220: ac82 83bc b14c 28bd af0a 153b 44a7 123a
00000230: e73c d4bb 8631 c23b 295c 1ebd 4d64 793d
00000240: e4eb 6cbd 473e f2bc b892 2fba f7de 583c
00000250: d1d7 0d3d a021 bdbd e35c a83c cdac 1ebd
00000260: fc97 ba3c bfb0 50bc b1df 41bd fffe f9ba
00000270: ea0e 1b3d 9163 093d 4413 ac3d c7d9 abbc
00000280: e034 9c3c 6e70 ebbc 5671 54bc a012 a4bb
00000290: a01c 583c 484e e8bc 03d3 e83c 3e16 5e3c
000002a0: d0ce 263c a397 34bc 3f1b 003d 2455 4fbd
000002b0: f0fc 77bb b7b8 a7bc 9932 3ebd 3ed6 113d
000002c0: 33b6 08bc 9d4a f0ba f652 be3c 12e6 9bbc
000002d0: fc5e 1e3d eb43 d2bc 4ff2 1b3d a13f 39bc
000002e0: f7ef 1ebd 1ce2 08bd 8a77 d23c 9f65 7d3c
000002f0: b4ca 0d3d f09c bcbc 9d59 dfba b860 113c
00000300: a5d8 f8bc 4ac8 443d 7fc7 e9bc 59cf b8bc
00000310: cdfe b7bd d1c9 03bd 69b1 103c 484b a43b
00000320: ce1e 233d fa37 5eba 43f9 493d 3a40 9cbb
00000330: f5fb 4bba ac61 60bd 762d 3b3d 8378 94bb
00000340: 05cf 1c3d fe10 dcbc c860 ce3c 6d9f 34bd
00000350: e40c 3c3c 9f7a 95bc e2cf ad3c e22c ac3b
00000360: c86d 4cbd 7c7f 29bd 8248 5abe dc33 803c
00000370: 0ecd e4bb e4e3 13bd f8af a13d 50b1 bc3b
00000380: 302d 27bd 7177 9ebd 02d7 e63b 6ec9 e4bc
00000390: 23b8 42bd 449b b9bc c0fd 433c e1f0 afbc
000003a0: 8f18 9dbd 5a44 12bc be68 aebd cf2b f1ba
000003b0: 9eda 083d 1ee4 203d df98 c5bc 4a8c e93b
000003c0: 33f8 c0b8 a156 5fbd 5622 24bd 2c55 a83c
000003d0: 0598 2fbd 74c1 11bb 4a7b 073b cf79 6a3d
000003e0: 1a1f 983b a04b 12bc 942a 55bd deda e1ba
000003f0: 65e2 49bd bb5d d4bc 4525 82bd 6d12 42bd
0.033997547 -0.0612376 -0.039693415 0.058103967 -0.008330439 -0.074959055 -0.043175235 0.05645824
-0.05755437 -0.026008153 -0.0570113 0.04644426 -0.02240759 -0.024213681 0.015011693 -0.044788558
0.04711649 0.018965138 0.04897605 0.022490688 0.033398714 -0.010133996 0.05285002 0.00078222924
-0.07871932 -0.007193973 -0.059040237 0.02284353 -0.0040171514 -0.04456628 0.04221768 -0.054863285
0.02555061 0.031824015 -0.02971101 0.021300746 0.029460317 -0.0040697395 -0.09272394 0.03544238
-0.008080482 -0.0089245485 0.02655727 0.024416927 0.04755472 -0.07238921 -0.048327696 0.013775079
0.05820444 0.016413195 0.017112834 -0.025499033 -0.050282814 0.019154666 0.006814691 0.006106841
0.025354385 0.024532948 0.036311522 -0.03940327 -0.011686989 -0.008387797 -0.020909518 0.030714894
0.01696618 -0.019184213 0.0030882861 0.0066962535 0.009964776 0.010829797 0.08767108 0.038531203
0.005469919 -0.025525285 -0.029005997 -0.025845518 0.033744883 0.045952376 0.08013131 -0.044320017
0.065621875 0.009248151 -0.07778582 -0.031731926 -0.007200989 0.041122038 0.024476597 -0.037674274
-0.08472219 0.03290706 0.008551152 -0.16206089 0.011600445 -0.052299008 -0.059727453 -0.0415462
0.03659079 0.043201253 0.023656586 -0.015083269 0.024885193 0.006737086 0.001504179 -0.07903338
0.0256093 -0.026028704 -0.06166044 -0.052643083 -0.056576155 -0.1152474 0.05525997 0.058400035
-0.044478953 0.010158084 -0.010611065 -0.05198444 0.00060962816 -0.05584842 0.00238734 -0.017061219
-0.012098231 -0.034426354 0.013296884 -0.052676763 -0.011281009 -0.02547438 0.031535283 0.004915417
0.011390762 0.04870719 -0.029864741 -0.11732275 -0.028360583 0.054709323 -0.047575217 -0.09920767
-0.01605352 -0.041088764 0.0022741964 0.00055943825 -0.0064769867 0.005926314 -0.03866211 0.06088667
-0.05784215 -0.029570712 -0.0006697583 0.013236753 0.034629647 -0.09234929 0.020552104 -0.038739014
0.02277755 -0.012737452 -0.04733247 -0.0019073187 0.03785602 0.03354222 0.08402112 -0.020977868
0.019068182 -0.028740134 -0.0129664745 -0.005007103 0.0131904185 -0.02835764 0.02842093 0.013555108
0.010181144 -0.011022481 0.031275984 -0.050618306 -0.0037839971 -0.020473821 -0.046434972 0.035604708
-0.008344221 -0.0018332783 0.023232918 -0.019030605 0.038664803 -0.025667151 0.03807288 -0.011306674
-0.038803067 -0.03341876 0.025691766 0.015466123 0.03461714 -0.023024052 -0.0017040257 0.008873157
-0.030376742 0.048042573 -0.02853751 -0.022559809 -0.08984146 -0.03217489 0.00883136 0.005013857
0.0398243 -0.0008476969 0.04930998 -0.0047683986 -0.000778138 -0.054780647 0.04569765 -0.0045309677
0.038283367 -0.026863571 0.025192633 -0.044097353 0.011477683 -0.018246947 0.02121729 0.005254374
-0.049909383 -0.041381344 -0.21316722 0.015649728 -0.0069824522 -0.036106005 0.078948915 0.005758442
-0.04081458 -0.077376254 0.007044674 -0.02792808 -0.047538888 -0.022657044 0.011962354 -0.021477165
-0.076707 -0.008927429 -0.08516072 -0.0018399897 0.033411615 0.03928005 -0.024120746 0.0071273195
-9.201504e-05 -0.054525975 -0.040071808 0.020548426 -0.042869586 -0.0022240551 0.0020672851 0.057245072
0.0046423795 -0.008929163 -0.05204256 -0.0017231365 -0.049288172 -0.0259236 -0.06354765 -0.047380853
