head_word/gpt2/layer_9.pt (torch, 787676 bytes, 1 tensors)

weight f4 [256, 768]
000000 29 a0 29 bd ad 69 0b bd 34 b4 0b bc 88 4a 87 3d
       -0.041412506 -0.034036327 -0.0085268505 0.066060126
000010 8a f6 5a bc 51 63 84 3d 82 57 37 3d 64 f2 12 3d
       -0.013364444 0.064642556 0.04476119 0.035875693
000020 f4 ae 22 bd 2a 7c 95 bc 51 5d 12 3c 01 d3 14 bc
       -0.03971763 -0.018247683 0.008933381 -0.00908351
000030 d5 c9 3f bd d6 70 a9 3a ac b8 81 3c ca 7b 41 bd
       -0.04682334 0.0012927304 0.015835129 -0.047237195
000040 0d 66 ca bc 6a fe 89 bd f6 6a 01 bd 82 22 e3 bc
       -0.024706865 -0.06737979 -0.031596147 -0.027726416
000050 7e 70 3a 3c 3d 7a d5 3b 6b 60 5d bc ba b2 a4 bc
       0.011379359 0.006514816 -0.013511757 -0.020104755
000060 8d 17 b0 bb 80 05 bc 3c 98 7b 85 bc ef 74 6e 3d
       -0.005373901 0.022951841 -0.016294286 0.058216985
000070 95 f0 db 3c 6e 74 9f 3c 77 c8 65 3c b7 7c bb 3c
       0.026848117 0.019464698 0.014024845 0.022886617
000080 a8 60 4c 3d 00 bf b9 bb b8 55 67 bc da de 69 bc
       0.049896866 -0.005668521 -0.014119558 -0.014274323
000090 9c 6e 85 bc 0b bc fc 3b 71 22 96 bd 7d 87 70 bd
       -0.016288094 0.007712846 -0.07330788 -0.05872296
0000a0 5d a4 4d bd c3 da e6 bc 12 f7 48 3d a2 95 62 bd
       -0.050205577 -0.028180486 0.04906375 -0.055318482
0000b0 00 58 1c 3d 3a 27 6e bd ad 77 e3 bc b4 86 23 bb
       0.03816986 -0.058142878 -0.027767027 -0.0024952115
0000c0 82 fd 77 bc 32 40 90 bc 9b 38 77 3d e3 2a d9 bc
       -0.015136125 -0.017608736 0.060356718 -0.026509708
0000d0 5f 81 85 3d b7 c3 59 bc c7 96 a7 3c 1f b4 ce 3c
       0.06518816 -0.013291291 0.020457638 0.025232373
0000e0 49 b0 a2 bb 6f 13 22 3c 90 90 20 bd e0 00 b5 bd
       -0.0049648625 0.009892329 -0.039200366 -0.088380575
0000f0 ba 2c 9c bb cf 53 7e bb f5 62 4e 3d c1 8a 34 bd
       -0.004766074 -0.0038807278 0.05038734 -0.04407764
000100 05 f9 8d bc 31 18 64 bb 05 70 10 3c 81 bb 64 bd
       -0.017330656 -0.0034804458 0.00881577 -0.05584288
000110 46 28 bd bd 67 3e dc bc 8a 6e e7 3c 9d 0a 14 bd
       -0.09236197 -0.026885225 0.028250951 -0.036142934
000120 54 1d 17 3d a4 7c f3 bb 39 10 da bb 3f d0 1c bc
       0.036893204 -0.00743063 -0.006654766 -0.009571134
000130 95 96 d5 3c b9 66 85 bc b2 8e 8f bc 1a 1c 76 bb
       0.02607278 -0.016284334 -0.017524097 -0.003755337
000140 0c 75 0d 3d a4 6c b8 3b 40 3a 80 bc 4c cf 05 bd
       0.034535453 0.0056281853 -0.015652776 -0.032668397
000150 94 a2 75 bd 3e 27 e8 3a f8 aa 07 3d d9 a3 de bc
       -0.0599695 0.001771189 0.033122033 -0.027177738
000160 5a 6a 60 3c ce e1 40 3d b0 bd 9e 3d 89 ae a9 3c
       0.013697231 0.047090344 0.07751024 0.020713108
000170 ea dc ae bc 36 5e 2c 3d 62 ca 68 bc 94 14 9c 3b
       -0.021345574 0.042082034 -0.014208408 0.0047631953
000180 e6 34 be bc 21 4f 2d bc 40 9e 6c 3b e5 c3 9f 3b
       -0.023218583 -0.010577948 0.0036105067 0.0048756474
000190 25 38 16 bd f2 e6 f6 bb bc 97 33 bd 5e e5 bb 3c
       -0.036674637 -0.007534855 -0.043845877 0.02293652
0001a0 ff a7 59 3d fe 56 f8 bb c6 26 c7 bb 25 8c ed 3c
       0.05313873 -0.0075787297 -0.00607762 0.02899749
0001b0 96 3c c0 ba 28 47 6b 3d 32 22 a0 bb 67 df c6 3c
       -0.0014666494 0.057440907 -0.004886889 0.024276448
0001c0 db ee cf 3c 47 00 22 bd 74 3c db bc 12 0b 49 bc
       0.02538245 -0.039551046 -0.026762225 -0.012270706
0001d0 02 4b 55 bd b8 2c e4 bc e9 8e bb bc 9e de 0a 3d
       -0.052073486 -0.027853355 -0.022895293 0.03390371
0001e0 cb 57 13 bc 18 bd 00 bd ef 8d 7b bb f1 dd 36 bd
       -0.008993099 -0.031430334 -0.003838416 -0.044645254
0001f0 56 d5 b3 3c bc b3 d3 bb fe c2 ff 3c 52 3d 0b 3d
       0.021952312 -0.006460635 0.03122091 0.033994026
000200 d1 e1 1a 3d 68 60 80 bd e3 8c 12 3d 82 6f 0b 3c
       0.03781301 -0.06268388 0.03577889 0.008510472
000210 08 73 11 3d 7b fe e9 ba 76 06 db bc 80 d1 11 bd
       0.035510093 -0.001785233 -0.02673648 -0.035600185
000220 4a 48 cb 3c 29 f9 cd bc 2b da 2b bd 93 3b 0b bd
       0.024814744 -0.025143223 -0.041956108 -0.03399236
000230 38 fd 92 3c 00 3c ba bc 24 88 50 bc dc 8c 11 bb
       0.01794301 -0.022733688 -0.012727771 -0.0022209203
000240 1b 3f e8 bc 63 5c 8c 3d 75 be b8 3c db c0 96 3c
       -0.028350404 0.06853559 0.022551754 0.018402508
000250 06 cc 6b 3b 46 24 0b 3d 41 e4 40 3c 65 12 05 3d
       0.0035979762 0.03397014 0.01177317 0.032488246
000260 4b 44 1e 3d 46 35 0f 3d a9 d6 12 3d 05 2b 95 39
       0.038639348 0.034962915 0.035849247 0.00028451547
000270 5d 19 67 3b a7 2a 4e 3d 71 a8 48 3c 65 57 b6 bc
       0.003526292 0.050333645 0.012247191 -0.02225847
000280 dd 39 89 ba 5f f4 82 3d 2e b6 0c bd 16 79 3b bd
       -0.0010469515 0.06394266 -0.034353428 -0.045769773
000290 b4 15 f2 3c 3b 39 a9 bc 40 32 88 3d bf f3 98 bd
       0.029551364 -0.020657172 0.066502094 -0.07468366
0002a0 91 e6 bc bc 0b 89 fa bc 38 f3 b8 bc 93 63 76 3c
       -0.023059161 -0.030582925 -0.022576913 0.015038389
0002b0 97 cb b6 3c 27 81 80 bc e7 cb e8 3c 09 78 9d 3c
       0.022313876 -0.015686585 0.02841754 0.019222276
0002c0 7e d1 2a 3d 48 6f 28 3d 82 71 91 bc 03 ed 9e bb
       0.041703694 0.04112175 -0.01775432 -0.0048500313
0002d0 cb b7 65 3d ee a4 7e 3c 4a 58 6f bb b4 1f ef 3b
       0.05608348 0.015542252 -0.003652113 0.0072974805
0002e0 d4 8c ea b9 81 69 de 3c 99 ae 1f bd bf 9c 06 3c
       -0.00044736883 0.027149918 -0.03898487 0.008216082
0002f0 42 95 7f bc 88 2e 05 3d 11 32 2c 3d 50 11 83 3c
       -0.015599551 0.03251508 0.042039935 0.015999466
000300 fb 42 4a 3d 34 cc 88 bd 22 84 a4 bc aa 1a 6a bd
       0.049380284 -0.06679574 -0.020082537 -0.057154335
000310 21 5e 5a 3d ec 44 e0 37 72 b8 54 bd f0 27 0b 3d
       0.053312425 2.6734975e-05 -0.051933713 0.033973634
000320 c1 d2 5b 3b 4c f6 66 3c 84 9b 03 3c 51 90 e1 3c
       0.0033542367 0.014096808 0.008032683 0.027534636
000330 f4 ab 84 bd 95 3d a6 ba 3d 0b fc 3c cb 4d c7 3c
       -0.0647811 -0.0012683148 0.030767078 0.024329087
000340 04 a3 44 3d 30 62 29 3d f7 cd cc bc f9 39 50 3d
       0.048007026 0.041353405 -0.025000555 0.050836537
000350 ac b2 bc bc ca 58 13 bc ec 1e 11 bd b0 11 b3 3d
       -0.023034416 -0.008993337 -0.03542988 0.08743608
000360 41 c5 a1 bc de 18 4d bc 80 e0 20 bd 4c a7 86 3d
       -0.019747378 -0.012518136 -0.0392766 0.06574878
000370 7f 1b 38 3d b2 16 da bc fe 56 ee 3c bf a2 14 bd
       0.044948097 -0.02662215 0.029094215 -0.03628802
000380 ea 43 23 bb 1b ce 62 3c 5e f9 14 3d fd fc b2 3d
       -0.0024912306 0.013843085 0.036370628 0.0873966
000390 bb 75 1c bc ff 1d 44 bd 3c a9 96 3c aa c1 76 bd
       -0.0095495535 -0.04788017 0.018391244 -0.060243286
0003a0 9a 63 9f 3d 75 27 66 3c 26 ea 42 bd 7e 51 05 3d
       0.07782669 0.014047493 -0.047586583 0.03254842
0003b0 64 a5 ec bc 6c 50 40 3d 3a af f7 3c dd 31 c1 bc
       -0.028887458 0.046951696 0.030234922 -0.023583347
0003c0 bf 68 60 bc d5 80 3c 3c e3 dc 91 bb f4 92 d0 3c
       -0.013696848 0.011505325 -0.0044513806 0.025460698
0003d0 4e 3a 37 bc 5c 0e 16 3d ef f2 85 3c 9e e8 9c 3c
       -0.0111833345 0.036634788 0.016351191 0.01915389
0003e0 8d 85 bd 3c 89 fc 13 bd dd 69 f4 bc d0 07 8b 3c
       0.023134971 -0.03612951 -0.029835636 0.016971499
0003f0 24 1c 17 bd b2 5b 64 bd 97 c7 97 bc cc c4 9d 3d
       -0.03689207 -0.05575151 -0.018527789 0.07703552
