head_word/gpt2/layer_11.pt (torch, 787681 bytes, 1 tensors)

weight f4 [256, 768]
0	0xbd82cd8b	-0.063868605
1	0x3d1868a7	0.03720918
2	0xbd61412e	-0.0549938
3	0xbd0246a7	-0.03180566
4	0xbc32b683	-0.010907772
5	0xbcc82276	-0.024430495
6	0xbd00f4fb	-0.03148363
7	0xbd347638	-0.044058055
8	0x3d3121b6	0.04324504
9	0xbd7284c4	-0.059208646
10	0x3c0ff51e	0.008786468
11	0xbd171322	-0.03688348
12	0xbb8e797e	-0.004347979
13	0xbbd36561	-0.0064512943
14	0x39ad00e9	0.0003299781
15	0xbd97d3ec	-0.07413468
16	0x3d1425d0	0.036168873
17	0xbca2ab54	-0.019857086
18	0xbd3d6266	-0.04623642
19	0x3ca45100	0.020058155
20	0x3dbb69f3	0.091510676
21	0x3ce4d7c0	0.027934909
22	0xbcd3529b	-0.025796225
23	0x3c1e21c4	0.009651605
24	0x3d1c4439	0.038151
25	0x3d01b2fa	0.031664826
26	0xbd10a5e3	-0.035314452
27	0xbb36401c	-0.0027809208
28	0xbd2796f0	-0.04091543
29	0x3c06550f	0.0081989905
30	0xbd2f304c	-0.04277067
31	0xbdb308c0	-0.08741903
32	0xbd134c53	-0.03596146
33	0xbd019996	-0.03164061
34	0xbc688dde	-0.01419398
35	0x3d731851	0.05934936
36	0x3dbe32ad	0.092870094
37	0x3da2f3fb	0.07956692
38	0xbcde7fcf	-0.027160553
39	0xbd2d8ddd	-0.04237162
40	0xbc47a897	-0.012186191
41	0x3d0d8e30	0.03455943
42	0xbd296cdd	-0.041363586
43	0xbd0c1264	-0.034197226
44	0xbab74369	-0.0013981882
45	0xbc150726	-0.009095943
46	0xbd9359cb	-0.07194861
47	0x3d8198d1	0.063279755
48	0x3cb9fd3f	0.022703765
49	0x3bfd92f0	0.0077384636
50	0x3cb2e464	0.02183742
51	0xbd8ea6c6	-0.06965403
52	0x3946bb54	0.00018952537
53	0xbd44d743	-0.048056852
54	0x3d1316ca	0.035910405
55	0x3d4722d9	0.048617218
56	0x3d4588f4	0.04822631
57	0x3cb97ccc	0.022642516
58	0x3d917f2b	0.071043335
59	0x3b2254b1	0.0024769718
60	0xbd5aef67	-0.053450968
61	0xbbdbba8e	-0.0067055887
62	0xbce59745	-0.028026232
63	0x3c491f13	0.012275475
64	0x3da460dc	0.08026287
65	0xbd2669b2	-0.040628143
66	0x3d915b5f	0.07097506
67	0x3c696262	0.014244648
68	0x3d4c283f	0.04984307
69	0x3da35f0d	0.07977114
70	0x3d806710	0.062696576
71	0xbc249b5f	-0.010046809
72	0xbcf4a394	-0.029863156
73	0x3cf372c7	0.029717816
74	0x3d29b894	0.041435793
75	0xba6e3d66	-0.00090881286
76	0x3d5110b7	0.05104133
77	0x3d50224f	0.05081397
78	0x3ba909d4	0.0051586423
79	0xbd3d7035	-0.046249587
80	0x3d26d124	0.040726796
81	0xbdc29764	-0.09501532
82	0x3cd1fc88	0.025633112
83	0x3d9f071d	0.077650286
84	0x3d8899f4	0.06669989
85	0xbabca3ea	-0.0014392112
86	0xbc2d0253	-0.010559636
87	0x3c6cec21	0.014460594
88	0x3d359d91	0.04433972
89	0x3bbcaff0	0.005758278
90	0x3d191b42	0.03737951
91	0x3cc683b2	0.02423272
92	0xbd43c270	-0.047792852
93	0xbc47aab4	-0.012186695
94	0xbca2aea7	-0.019858671
95	0x3cf31cb6	0.029676776
96	0xbd06dcbd	-0.032925356
97	0x3cb51846	0.022106301
98	0xbd520512	-0.051274367
99	0x3d593621	0.053030137
100	0x3d329c45	0.04360606
101	0xbcc6ca75	-0.02426646
102	0x3c6075a2	0.013699921
103	0xbcd54bfd	-0.02603721
104	0x3c7f7c2c	0.01559357
105	0xbbc58729	-0.0060280752
106	0xbd6fd6b3	-0.058554363
107	0x3ce3d9a5	0.027813742
108	0x3d8b457f	0.06800365
109	0x3ce2d38c	0.027688764
110	0x3cb0a5ce	0.021563437
111	0xba8065c6	-0.0009795956
112	0x3d43859d	0.047734845
113	0xbc1e6cf7	-0.009669534
114	0x3c970d51	0.018438967
115	0xbbf9c7d3	-0.007622698
116	0xbbd53146	-0.006506118
117	0xbb550d38	-0.00325091
118	0x3d288f7a	0.041152455
119	0x3d38d0df	0.04512107
120	0xbd113617	-0.035451975
121	0x3d3d12db	0.04616056
122	0x3cb2ea92	0.021840367
123	0xbc8a33bd	-0.016870374
124	0x3a6bb45e	0.00089914154
125	0x3d25d001	0.04048157
126	0xbcfeeffa	-0.03112029
127	0x3c072a3c	0.008249816
128	0x3c110103	0.008850339
129	0x3ca6ff32	0.020385358
130	0xbcb30700	-0.021853924
131	0x3d70f860	0.05883062
132	0xbc7cf1e2	-0.015438529
133	0xbd464832	-0.048408695
134	0xbcdfbf07	-0.027312769
135	0x3d081d9d	0.033231366
136	0x3d488fc1	0.04896522
137	0xbc76667d	-0.015039084
138	0xbd30bba8	-0.043147713
139	0xbc2de424	-0.010613475
140	0xbde7c806	-0.11317448
141	0x3cd4e4e7	0.025988055
142	0x3c1857bb	0.00929826
143	0xbda85954	-0.08220163
144	0xbc8df7bf	-0.017330049
145	0x3d0b15e4	0.033956423
146	0xbce3b156	-0.027794521
147	0xbd9de45e	-0.07709573
148	0x3ae651fb	0.001757204
149	0x3d1e3cb5	0.038632113
150	0xbc05f160	-0.008175224
151	0xbcb92c85	-0.022604236
152	0x3db8fcc3	0.090325855
153	0xbcf5f4d1	-0.030023964
154	0xbd3e1eca	-0.04641608
155	0x3d319a9d	0.04336034
156	0x3ba30339	0.0049747494
157	0x3d884672	0.066540614
158	0x3d7b3f80	0.061339855
159	0x3ccf6bc9	0.02531995
160	0xbc321035	-0.010868122
161	0xbd6260e8	-0.0552682
162	0xbc53f7b6	-0.012937477
163	0xbc5918cf	-0.013250544
164	0x3d8cdd34	0.06878129
165	0xb980c070	-0.0002455744
166	0x3d06e574	0.032933667
167	0xbd148da7	-0.036267903
168	0x3d257a58	0.04039988
169	0xbd4bff10	-0.049803793
170	0xbc3510a0	-0.011051327
171	0xbd33c78f	-0.043891486
172	0xbce29d71	-0.027662965
173	0xbb20ac56	-0.0024516783
174	0xbcbc6eca	-0.023002047
175	0x3cf28ada	0.029607225
176	0x3bd0bd1d	0.0063702003
177	0xbcd1235d	-0.025529558
178	0xbc5d6466	-0.013512706
179	0x3b651cb9	0.0034959747
180	0x3b4e21c0	0.0031453222
181	0xbcd40a89	-0.02588393
182	0x3d23d538	0.039998263
183	0xbca7c436	-0.020479303
184	0x3d1f2199	0.0388504
185	0x3d27ec5c	0.040996894
186	0x3c31e188	0.0108569935
187	0x3cc33e9c	0.023833565
188	0xbcf55dcd	-0.029951954
189	0x3d02f577	0.031972375
190	0xbd69635c	-0.056979522
191	0x3d1ed378	0.03877589
192	0x3c700162	0.014648767
193	0xbce733ff	-0.028223036
194	0xbc65b496	-0.014020106
195	0x3cf17a6c	0.02947732
196	0xbd58ec0b	-0.052959483
197	0x3c9efeac	0.019408546
198	0x3d76b185	0.06022789
199	0x3c2bbc7c	0.01048195
200	0x3c6cc604	0.0144515075
201	0xbd347eef	-0.044066366
202	0xbd326cf6	-0.043560944
203	0x3c61e8a3	0.013788375
204	0xbdd6673e	-0.10468911
205	0x3d050c19	0.03248224
206	0xbd69fcf1	-0.05712599
207	0xbccade0a	-0.02476408
208	0x3d073a01	0.0330143
209	0xbda2691e	-0.07930206
210	0x3d13feaa	0.03613154
211	0xbb89f519	-0.004210126
212	0x3c8acdbe	0.016943809
213	0xbc980867	-0.018558694
214	0x3d15d1d6	0.03657707
215	0x3c86f16b	0.016472539
216	0x3d1ef88a	0.038811244
217	0xbba86e74	-0.00514012
218	0x3c6ef2ca	0.014584253
219	0x3d202efd	0.03910731
220	0x3d154557	0.03644308
221	0xbc72df4b	-0.014823745
222	0xbcfd2cc0	-0.030905128
223	0xbce75a2f	-0.028241245
224	0xbccdcbe6	-0.02512164
225	0x3b253c85	0.0025213074
226	0x3cca76e1	0.024714889
227	0xbd6bac18	-0.05753717
228	0xbd412371	-0.04715294
229	0xbcdf7a41	-0.027279975
230	0xbd4a025a	-0.04931865
231	0x3d9d94c6	0.07694392
232	0x3c8f404a	0.01748671
233	0x3c791b4e	0.015204264
234	0x3ce2cb93	0.027684962
235	0x3c3e5a30	0.011618182
236	0x3c7e47fa	0.01552009
237	0xbd6439c6	-0.05571916
238	0x3c481ced	0.012213928
239	0xbc741d1f	-0.014899521
240	0xbd63f360	-0.055652022
241	0x3cd67c10	0.026182204
242	0x3ba698bb	0.005084125
243	0xbc1f14f1	-0.009709583
244	0x3cff96ef	0.0311999
245	0x3cb31e9e	0.021865185
246	0xbd726aa7	-0.059183743
247	0xbc58b5cd	-0.013226938
248	0x3d3adc2b	0.045620125
249	0x3c3099e0	0.010778874
250	0x3d26cf93	0.040725302
251	0x3c826b41	0.015920283
252	0xbd02eed2	-0.031966038
253	0xbd358ebe	-0.044325583
254	0xbd00918b	-0.0313888
255	0x3d1f609a	0.038910486
